storage/1602148124_model.pt (torch_old, 264427 bytes, 10 tensors)

weight f4 [6, 3, 5, 5]
-0.19536442 -0.10127501 0.076118395 0.08331465 0.15028346 -0.036643963 0.1453741 0.4929775
0.40264213 0.3152468 0.11971923 0.34481263 0.5654256 0.41441655 0.175125 -0.012779705
0.19938685 0.2530595 0.07480562 -0.055452153 0.00896291 -0.10732183 -0.40635517 -0.5042928
-0.36581588 -0.15615124 -0.14550547 0.087220624 -0.09169107 -0.19193761 -0.09875084 -0.21152842
0.05079393 0.0626991 -0.016136978 0.04666232 -0.045179263 0.22685604 -0.08491126 -0.14721885
-0.105932906 -0.3115541 -0.090471126 -0.31697607 -0.43681318 -0.19176337 -0.3078342 -0.42706478
-0.5689678 -0.35361615 -0.0690625 -0.18467885 -0.021736236 -0.1308562 0.03332792 0.027686872
-0.0049748197 0.0135959 -0.041450694 0.043655727 0.22094087 0.1184552 0.19612426 -0.024718145
-0.010775608 0.07644304 -0.061698712 0.14567877 -0.08019876 0.0980083 0.25180492 -0.11915847
-0.054772086 -0.016089968 0.26840952 0.011088784 -0.05243714 -0.047996443 -0.1717876 -0.10466053
-0.069250844 0.10892171 0.05935373 -0.11817821 -0.029913476 -0.07359459 0.06778094 -0.004786019
0.009930005 -0.12057706 -0.12040909 -0.10734851 -0.04080777 0.038683455 -0.15993984 -0.029339477
-0.1117526 -0.115086496 -0.008217068 0.07195954 -0.080370136 0.037513908 -0.052232277 -0.22529253
-0.090519056 0.057236608 -0.06368868 -0.13904345 -0.14130963 -0.16307679 0.07572696 -0.064814515
-0.01945958 0.02628942 -0.2169586 -0.012550976 0.12147475 0.08892807 -0.0821917 -0.035715494
-0.041231345 0.080081746 -0.066213325 0.008340332 -0.05780782 0.22730425 0.14712125 0.072769076
0.007852111 -0.17303367 0.14996831 0.3034539 0.1460562 0.10170162 -0.18083705 0.12151167
0.3245977 0.26521012 0.024544936 -0.062113605 0.17618613 0.2973865 0.18911894 0.09383945
0.12997736 0.13334398 0.12207023 0.2999392 0.1719969 0.01284387 -0.13782096 -0.14263436
0.36959982 -0.054327954 -0.053806815 -0.3693872 -0.042588294 0.5595482 0.071913235 -0.47447836
-0.19589162 -0.04838689 0.33246902 0.032649584 -0.3296867 0.20151164 -0.14026198 -0.042099327
0.11304987 -0.034088176 0.22368221 -0.09418241 -0.25039724 0.11556071 -0.165931 -0.15353292
0.15413192 0.5442525 0.19133325 -0.0818227 -0.25799656 0.13773245 0.686597 0.20435324
-0.48128217 -0.13784914 0.2454209 0.5081276 0.17058763 -0.2883203 0.2572265 0.2071823
-0.010861125 0.28973052 -0.15671094 0.35516542 0.1460555 -0.054298256 0.33548054 -0.03830011
-0.17782041 -0.20579989 0.31560284 -0.099015474 -0.3305922 -0.35578132 -0.13234201 0.3722845
0.08115158 -0.57023513 -0.33861688 0.01973259 0.21496198 -0.032099225 -0.29433054 0.033049494
-0.091320716 -0.062414557 0.03974684 -0.09829462 -0.024623793 -0.14429829 -0.10201743 0.10594439
-0.25726387 0.033355936 0.05903372 0.16394548 0.26378652 0.16043139 -0.2663779 -0.41777262
-0.37353182 -0.42306605 -0.35757798 -0.18504253 -0.2632976 -0.4835516 -0.37238836 -0.1761891
0.097621635 0.31014833 0.3876633 0.19146575 0.05282539 0.22690237 0.2667087 0.31181765
0.270369 0.16378176 0.21804406 0.27160317 0.29410735 0.18426064 0.069680005 -0.028809883
00000000: 9c0d 48be 4669 cfbd f6e3 9b3d dfa0 aa3d
00000010: e8e3 193e fb17 16bd f3dc 143e 8c67 fc3e
00000020: 1c27 ce3e 0768 a13e 5b2f f53d 488b b03e
00000030: bbbf 103f 682e d43e f853 333e f861 51bc
00000040: 112c 4c3e 0491 813e b033 993d cc21 63bd
00000050: 2bd9 123c 8ccb dbbd c90d d0be 5519 01bf
00000060: 384c bbbe 1ce6 1fbe 63ff 14be baa0 b23d
00000070: 87c8 bbbd 4b8b 44be e13d cabd e89a 58be
00000080: 4c0d 503d 6368 803d b231 84bc fd20 3f3d
00000090: e40d 39bd f34c 683e f4e5 adbd 8ac0 16be
000000a0: 5af3 d8bd 0584 9fbe ed48 b9bd b04a a2be
000000b0: faa5 dfbe 9e5d 44be 729c 9dbe 3ca8 dabe
000000c0: e0a7 11bf 2d0d b5be a470 8dbd 741c 3dbe
000000d0: 3110 b2bc 2bff 05be db82 083d 94cf e23c
000000e0: d003 a3bb 56c1 5e3c 34c8 29bd 59d0 323d
000000f0: 533e 623e a498 f23d ccd4 483e b57d cabc
00000100: 2d8c 30bc 2b8e 9c3d cab7 7cbd d12c 153e
00000110: 3f3f a4bd 93b8 c83d 93ec 803e 5b09 f4bd
00000120: b258 60bd 1ccf 83bc f96c 893e bbad 353c
00000130: 54c8 56bd eb97 44bd 17e9 2fbe 4358 d6bd
00000140: 63d3 8dbd 5812 df3d e61c 733d 6b07 f2bd
00000150: 1b0d f5bc c3b8 96bd bcd0 8a3d 0ad4 9cbb
00000160: 76b1 223c 1bf1 f6bd 0a99 f6bd 89d9 dbbd
00000170: 0c26 27bd 8b72 1e3d 45c7 23be 5859 f0bc
00000180: 8cde e4bd 78b2 ebbd e2a0 06bc 865f 933d
00000190: 1999 a4bd 2fa8 193d 83f1 55bd 16b3 66be
000001a0: 0e62 b9bd ef70 6a3d 366f 82bd 6861 0ebe
000001b0: 79b3 10be 9afd 26be bd16 9b3d 79bd 84bd
000001c0: b269 9fbc e95c d73c 652a 5ebe 9ca2 4dbc
000001d0: c1c7 f83d ec1f b63d 1f54 a8bd 694a 12bd
000001e0: 33e2 28bd e601 a43d da9a 87bd e3a5 083c
000001f0: e5c7 6cbd 72c2 683e f4a6 163e f407 953d
00000200: 24a6 003c bd2f 31be 4b91 193e 4f5e 9b3e
00000210: c28f 153e f048 d03d 592d 39be 1cdb f83d
00000220: ab31 a63e 9fc9 873e 7612 c93c d66a 7ebd
00000230: 236a 343e 0b43 983e 65a8 413e e62e c03d
00000240: c918 053e 538b 083e f5ff f93d a191 993e
00000250: f51f 303e 186f 523c f020 0dbe be0e 12be
00000260: 303c bd3e fd86 5ebd 8964 5cbd 5220 bdbe
00000270: 1071 2ebd 8d3e 0f3f 3f47 933d d4ee f2be
00000280: d097 48be 5531 46bd 6139 aa3e 92bb 053d
00000290: b2cc a8be 1159 4e3e d6a0 0fbe 5870 2cbd
000002a0: b186 e73d 0ba0 0bbd f30c 653e b5e2 c0bd
000002b0: 1134 80be 18ab ec3d d1e9 29be bc37 1dbe
000002c0: c2d4 1d3e 2254 0b3f ddec 433e a992 a7bd
000002d0: 2018 84be bc09 0d3e d2c4 2f3f fa41 513e
000002e0: 9e6a f6be 5328 0dbe 9e4f 7b3e a714 023f
000002f0: 86ae 2e3e b89e 93be 31b3 833e 9927 543e
00000300: dcf2 31bc 8f57 943e d578 20be 3ed8 b53e
00000310: 938f 153e d967 5ebd 1bc4 ab3e 93e0 1cbd
00000320: 8e16 36be 35bd 52be b296 a13e a0c8 cabd
00000330: 6143 a9be f828 b6be aa84 07be 139c be3e
00000340: cd32 a63d eefa 11bf 315f adbe 3ea6 a13c
00000350: fe1e 5c3e 7a7a 03bd 7eb2 96be e85e 073d
00000360: 5b06 bbbd 68a6 7fbd 95cd 223d b14e c9bd
00000370: d6b7 c9bc eec2 13be 84ee d0bd 5ff9 d83d
00000380: 17b8 83be 3ca0 083d 58cd 713d 53e1 273e
00000390: 070f 873e 2048 243e af62 88be 4be6 d5be
000003a0: 903f bfbe 1d9c d8be 7614 b7be ca7b 3dbe
000003b0: f1ce 86be 1394 f7be b0a9 bebe ea6a 34be
000003c0: daed c73d c3cb 9e3e ce7b c63e 990f 443e
000003d0: 705f 583d 1859 683e 0b8e 883e 90a6 9f3e
000003e0: ce6d 8a3e 68b6 273e f146 5f3e 920f 8b3e
000003f0: 3d95 963e d2ae 3c3e 64b4 8e3d b402 ecbc

bias f4 [6]
-0.46433556 0.08032431 0.067938365 -0.19083856 0.40869877 0.6153914
00000000: 64bd edbe 1281 a43d 4523 8b3d 2f6b 43be
00000010: f740 d13e 4a8a 1d3f

weight f4 [16, 6, 5, 5]
-0.0169343 0.012957337 0.0693725 -0.06105441 -0.024183052 0.084828064 -0.025083285 -0.006796639
0.09640313 0.08487419 -0.029181859 0.003189026 0.0020773923 -0.038300037 0.040667526 0.0015131569
0.0040682773 -0.018834377 0.007456789 0.033463754 -0.16645667 -0.112813994 -0.1293697 0.008650291
-0.10842923 0.0013551221 0.0026405868 0.009999025 -0.0406085 -0.01573668 0.046532925 0.09974347
-0.03709 0.027784826 0.11097568 -0.0320289 0.12109743 -0.05043904 -0.012581222 0.10935553
-0.061503097 0.118165106 0.015466839 0.029965129 0.0064748586 0.040034216 0.13089274 0.009152486
0.040640425 0.06628972 -0.11277361 -0.019838968 -0.15272492 -0.0046469565 -0.091985986 -0.003967966
0.2322423 -0.075813256 0.18089502 -0.057188123 -0.091827296 0.1912342 -0.17113845 0.27856612
-0.004938049 -0.06637366 0.25154924 -0.1336288 0.22517736 -0.061154388 0.016438674 0.15712132
-0.12769786 0.22889298 0.01574454 0.03263345 0.095934816 0.030036632 0.057285845 0.019199504
-0.038241677 -0.055931352 -0.17523336 -0.0143239545 -0.0033813491 0.050815906 -0.016725602 -0.044631194
-0.020822141 -0.054867275 -0.014772182 -0.03746174 0.01544467 -0.062627 0.053289212 0.018232426
-0.06646046 -0.013957477 0.0047492357 -0.02881078 -0.11205254 0.028794497 -0.056849178 -0.064025305
-0.030276882 0.017883254 -0.07365403 -0.09596414 0.011873253 -0.08570126 0.010071969 0.048041373
-0.04772848 0.019433763 -0.020304376 -0.096943796 0.026855057 -0.041373152 0.06604658 -0.04429879
-0.08328954 0.041443486 -0.11862657 -0.022213927 -0.0418471 -0.0828967 0.04937569 -0.080773175
0.07277444 0.08279044 0.03134056 -0.029380804 0.09621607 -0.019413657 0.014977668 -0.048985142
0.014422655 0.03867849 0.005238965 -0.015347179 -0.06867552 -0.0027510915 0.008691537 0.10095289
-0.025024688 -0.033674665 -0.013846854 -0.038768843 0.050987158 0.05420088 -0.03711148 0.02000153
-0.089002974 0.020587202 0.025895162 0.066537306 0.004468436 0.02851122 0.111176476 0.1673831
0.07885659 0.093691856 0.104182936 0.0949717 0.1485111 0.1316408 0.11970783 0.021250749
0.14291789 0.05627277 0.047743417 0.022947127 0.0710714 0.04012441 0.025922729 -0.019894334
-0.06085045 -0.06588225 -0.063336715 0.0927529 0.038560927 -0.09078227 -0.039702233 0.01929167
-0.052342802 -0.040586177 -0.0028630549 -0.0055147368 -0.09807333 0.039716296 -0.032814912 -0.0004097591
-0.114112966 0.0071614627 -0.040048916 -0.0042601773 0.040641487 -0.06771015 0.048495714 -0.07873219
-0.105783865 0.023402523 -0.015967164 -0.07848071 -0.06617777 -0.21693362 -0.24542369 -0.18744001
-0.090734415 -0.1288689 -0.25598606 -0.28632954 -0.30014282 -0.25394288 -0.141965 -0.19068706
-0.25048992 -0.24801762 -0.14603542 -0.09120661 -0.057156224 -0.0036421244 0.033568818 -0.0539443
0.018392598 0.11240671 0.13829252 0.10742948 0.045186393 0.07575561 0.1142379 0.07009891
0.11535582 0.07627528 0.077723145 0.012956148 0.03919954 0.038626067 -0.06989212 0.046948668
-0.05040086 -0.11811868 -0.070686206 -0.10192858 -0.021018427 0.04844027 0.039308246 -0.033641975
-0.0023125822 0.034383036 -0.01764823 -0.07770599 0.0040533636 0.040006448 0.06835872 0.066537865
00000000: cdb9 8abc 034b 543c 2b13 8e3d 3014 7abd
00000010: 891b c6bc 56ba ad3d 767b cdbc 57b6 debb
00000020: 016f c53d 85d2 ad3d cb0e efbc fafe 503b
00000030: dc24 083b 80e0 1cbd fe92 263d 1f55 c63a
00000040: 2f4f 853b 8d4a 9abc 1458 f43b 4a11 093d
00000050: 9e73 2abe 060b e7bd 7e79 04be f3b9 0d3c
00000060: 2510 debd 5a9e b13a b20d 2d3b f3d2 233c
00000070: 1955 26bd 36ea 80bc 4f99 3e3d 4e46 cc3d
00000080: afeb 17bd 019d e33c 3847 e33d bc30 03bd
00000090: ee01 f83d 2b99 4ebd 7821 4ebc cbf5 df3d
000000a0: acea 7bbd 8c00 f23d a068 7d3c 6e79 f53c
000000b0: 0d2b d43b ebfa 233d bf08 063e 4ff4 153c
000000c0: 9376 263d e8c2 873d daf5 e6bd 5585 a2bc
000000d0: ec63 1cbe 7f45 98bb 2663 bcbd b605 82bb
000000e0: edd0 6d3e fb43 9bbd 8b3c 393e 183e 6abd
000000f0: f30f bcbd e6d2 433e eb3e 2fbe 38a0 8e3e
00000100: 5bcf a1bb eaee 87bd 10cb 803e fdd5 08be
00000110: e594 663e 067d 7abd 66aa 863c 69e4 203e
00000120: 3ac3 02be ec62 6a3e b2fa 803c a7aa 053d
00000130: 7979 c43d 620f f63c 90a4 6a3d 4748 9d3c
00000140: 4ea3 1cbd 4618 65bd 6070 33be 05af 6abc
00000150: a099 5dbb 5724 503d 2104 89bc 33cf 36bd
00000160: 3293 aabc 82bc 60bd 0607 72bc 7b71 19bd
00000170: a40b 7d3c 9642 80bd ca45 5a3d 2b5c 953c
00000180: 6c1c 88bd e7ad 64bc 7a9f 9b3b 9604 ecbc
00000190: cd7b e5bd 70e2 eb3c afda 68bd b31f 83bd
000001a0: 3907 f8bc e77f 923c edd7 96bd d988 c4bd
000001b0: 0888 423c 2484 afbd e604 253c 08c7 443d
000001c0: f07e 43bd 8e33 9f3c 5d55 a6bc 788a c6bd
000001d0: 23ff db3c e576 29bd 6e43 873d a672 35bd
000001e0: b593 aabd a5c0 293d 7df2 f2bd fbf9 b5bc
000001f0: dd67 2bbd bfc5 a9bd 2a3e 4a3d 686c a5bd
00000200: c40a 953d 098e a93d f65e 003d 03b0 f0bc
00000210: ee0c c53d 6409 9fbc e564 753c a5a4 48bd
00000220: 004d 6c3c 566d 1e3d a0ab ab3b bc72 7bbc
00000230: c0a5 8cbd a84b 34bb f366 0e3c 64c0 ce3d
00000240: 9300 cdbc 72ee 09bd eadd 62bc 14cc 1ebd
00000250: e9d7 503d be01 5e3d 3502 18bd 40da a33c
00000260: 3147 b6bd 7ea6 a83c 1722 d43c b644 883d
00000270: f56b 923b 5d90 e93c 7eb0 e33d 7a66 2b3e
00000280: 907f a13d 84e1 bf3d dd5d d53d 8680 c23d
00000290: 4b13 183e d9cc 063e 6129 f53d 0d16 ae3c
000002a0: 1159 123e 477e 663d 9a8e 433d 9dfb bb3c
000002b0: e28d 913d 7e59 243d e75b d43c 71f9 a2bc
000002c0: 523e 79bd 46ed 86bd aeb6 81bd 3cf5 bd3d
000002d0: 10f2 1d3d 0eec b9bd cf9e 22bd 9009 9e3c
000002e0: 6865 56bd b13d 26bd 17a2 3bbb f7b4 b4bb
000002f0: acda c8bd 8ead 223d ee68 06bd efd4 d6b9
00000300: 0fb4 e9bd b4aa ea3b 550a 24bd f598 8bbb
00000310: b077 263d 9eab 8abd 71a3 463d 583e a1bd
00000320: 36a5 d8bd a6b6 bf3c 92cd 82bc 7fba a0bd
00000330: 3688 87bd d923 5ebe 5950 7bbe 46f0 3fbe
00000340: f7d2 b9bd 35f6 03be 9b10 83be c999 92be
00000350: 52ac 99be cd04 82be 465f 11be 7843 43be
00000360: 3740 80be 55f8 7dbe 4f8a 15be 88ca babd
00000370: a51c 6abd b5b0 6ebb 757f 093d b3f4 5cbd
00000380: 13ac 963c 7d35 e63d 8e9c 0d3e fd03 dc3d
00000390: 5e15 393d c225 9b3d 8ff5 e93d 0490 8f3d
000003a0: ac3f ec3d 3736 9c3d 502d 9f3d 0646 543c
000003b0: b28f 203d 5e36 1e3d 9a23 8fbd 3f4d 403d
000003c0: 2271 4ebd 35e8 f1bd eec3 90bd eebf d0bd
000003d0: d62e acbc 4e69 463d af01 213d 2bcc 09bd
000003e0: b18e 17bb 3ad5 0c3d 0593 90bc 5124 9fbd
000003f0: 14d2 843b cddd 233d a8ff 8b3d 0145 883d

bias f4 [16]
-0.17991751 -0.10704911 0.37958583 0.023676893 0.117023006 -0.50717896 -0.21853666 0.18298247
-0.48402807 0.2993814 -0.3624201 0.7543951 0.027598029 -0.072538905 -0.16752163 0.8951213
00000000: 4c3c 38be 903c dbbd 1359 c23e 0bf6 c13c
00000010: c2a9 ef3d 7bd6 01bf 13c8 5fbe c25f 3b3e
00000020: 87d2 f7be 8548 993e 218f b9be 0a20 413f
00000030: 4315 e23c 478f 94bd ca8a 2bbe ab26 653f

weight f4 [120, 400]
-0.02625751 0.03091323 9.142479e-05 0.030246308 -0.016757838 0.002209259 -0.01537172 0.09705894
-0.018375834 0.0013945351 0.029025128 0.009513038 0.06847785 -0.022780176 0.0044551147 -0.025802655
-0.020561693 -0.0042035175 -0.0069540734 0.0070377504 -0.060300495 -0.06918701 0.002608841 -0.06471627
0.014282368 0.027962685 -0.030793786 0.01096125 -0.010604459 -0.019266007 0.009752744 0.0072880406
-0.010316036 -0.081756026 -0.056440055 0.0064531025 -0.020899273 -0.06132537 -0.021091487 0.044236336
0.017516132 -0.051681478 0.018956078 0.047228385 0.03363811 0.0026702269 0.0662734 0.05217147
-0.019429004 -0.056651752 0.05110248 -0.025211416 -0.0080509195 0.007334796 0.07807917 0.050340936
-0.07902779 -0.07956965 -0.04357092 0.03542148 -0.041273583 -0.0036400259 -0.0074742725 -0.04982825
0.043906532 -0.04409812 -0.07284097 -0.006287848 -0.038779233 0.020245615 8.017837e-05 -0.06967551
0.019468423 -0.010972574 0.0324535 0.019392468 0.06856524 0.06027645 0.020539388 0.0125987725
-0.06789828 -0.03755336 0.0016261964 -0.030537065 -0.012993792 -0.09313511 0.036862586 0.035523467
0.07491554 0.01254913 2.2383314e-05 0.020679334 0.018234784 0.0663197 0.015237361 -0.06672119
0.010698637 0.04895736 0.025179071 0.031387005 -0.046887197 0.053046536 -0.027843032 -0.028566672
-0.09046282 0.0034490288 -0.0030402779 -0.020087054 -0.029503278 -0.07445901 0.051417246 -0.017123176
-0.021224516 -0.055622634 -0.0001567468 -0.016694145 -0.05086042 -0.04421447 -0.0229297 -0.037155855
-0.076048054 -0.061449263 0.007637737 0.010871109 -0.005847033 0.029028494 0.025988441 0.0005295289
0.04142576 -0.0034994215 0.017098527 0.036968295 0.023999278 -0.060882375 0.03375224 -0.036966495
-0.026906373 0.059146497 -0.012840628 -0.010644794 0.010791795 -0.003474729 0.00988256 -0.03137986
-0.005083946 0.021511061 -0.008574355 0.022905687 0.005122521 -0.025306646 0.10262456 0.025892975
-0.074525736 -0.022730354 0.04093779 0.034312703 -0.10912498 -0.093122974 -0.06834187 0.0029965423
-0.030666584 -0.036000837 -0.038169347 -0.0049042045 0.061075617 0.03867839 0.063322335 0.08445874
0.0990358 0.060448945 0.019972866 0.016348341 -0.031092167 0.012303606 0.06640542 0.06035771
0.03782902 -0.023292197 -0.018569445 -0.017959554 -0.013535016 0.010499885 0.009696609 -0.09611811
-0.044344455 0.040995833 0.008781101 0.006199889 -0.11263118 -0.09774742 0.008931076 -0.0017744065
-0.04536908 -0.09958869 -0.09351664 0.0726228 -0.008490448 -0.07200072 -0.080580726 -0.04762483
0.050456725 -0.036833983 -0.043669343 0.081258714 0.005046656 0.003321175 -0.0063281828 0.025462711
-0.013290034 -0.028366674 0.031866524 0.024552116 0.05570335 0.012276934 0.02078488 -0.051954824
0.041782472 -0.044824325 -0.04133726 0.046277143 -0.021322379 -0.021209622 0.018266719 -0.047442723
0.012139428 0.07088191 -0.008772574 -0.037795562 0.034185857 0.07770019 -0.03224193 -0.06761423
-0.10904941 -0.06424559 -0.028991276 -0.055732064 -0.07067957 -0.021019839 -0.0280794 -0.061076175
-0.03904984 -0.06488393 -0.036876004 -0.014619037 -0.0330803 0.07940174 0.05702721 0.04454965
0.063601784 0.018255569 -0.02856207 0.04812481 -0.033828735 0.077682495 0.06352392 0.0064516547
00000000: fd19 d7bc be3d fd3c 4fbb bf38 1bc7 f73c
00000010: bc47 89bc 37c9 103b abd9 7bbc d6c6 c63d
00000020: eb88 96bc d5c8 b63a 1bc6 ed3c 93dc 1b3c
00000030: 1d3e 8c3d 7e9d babc 36fc 913b 1760 d3bc
00000040: ff70 a8bc a9bd 89bb ffde e3bb ee9c e63b
00000050: a7fd 76bd ebb1 8dbd 17f9 2a3b f789 84bd
00000060: 9800 6a3c 0012 e53c 4043 fcbc d196 333c
00000070: 53be 2dbc bfd3 9dbc f9c9 1f3c 84d0 ee3b
00000080: 9704 29bc b46f a7bd b02d 67bd 8c74 d33b
00000090: f434 abbc 5030 7bbd 0ec8 acbc 2931 353d
000000a0: fe7d 8f3c f5af 53bd c749 9b3c 8d72 413d
000000b0: 1dc8 093d f9fe 2e3b 59ba 873d c0b1 553d
000000c0: 9329 9fbc ab0b 68bd d650 513d 2c88 cebc
000000d0: 01e8 03bc ba58 f03b f9e7 9f3d 4c32 4e3d
000000e0: 52d9 a1bd 6af5 a2bd 6c77 32bd 1d16 113d
000000f0: 7d0e 29bd 808d 6ebb beea f4bb b518 4cbd
00000100: 56d7 333d 3ba0 34bd a52d 95bd 4b0a cebb
00000110: f9d6 1ebd 22da a53c 6f25 a838 09b2 8ebd
00000120: 3e7c 9f3c 50c6 33bc f6ed 043d f4dc 9e3c
00000130: ef6b 8c3d 70e4 763d 3842 a83c 156b 4e3c
00000140: 410e 8bbd 8dd1 19bd 1926 d53a de28 fabc
00000150: eae3 54bc 9fbd bebd 39fd 163d 0e81 113d
00000160: 526d 993d de9a 4d3c cdc3 bb37 b567 a93c
00000170: 1d61 953c 9fd2 873d 20a6 793c 1fa5 88bd
00000180: 5649 2f3c 8387 483d 5744 ce3c a98f 003d
00000190: ca0c 40bd 5347 593d 1217 e4bc a704 eabc
000001a0: 9244 b9bd 1a09 623b 663f 47bb 9b8d a4bc
000001b0: dcb0 f1bc f77d 98bd e49a 523d e745 8cbc
000001c0: 09df adbc 8fd4 63bd 665c 24b9 29c2 88bc
000001d0: 0453 50bd 3b1a 35bd 11d7 bbbc bd30 18bd
000001e0: 15bf 9bbd 39b2 7bbd fb45 fa3b bc1c 323c
000001f0: 7898 bfbb 2acd ed3c b6e5 d43c 15d0 0a3a
00000200: 0fae 293d 8d56 65bb 3612 8c3c 116c 173d
00000210: 229a c43c cc5f 79bd ca3f 0a3d 2e6a 17bd
00000220: c16a dcbc 9943 723d 7f61 52bc 8167 2ebc
00000230: 12d0 303c 47b8 63bb 76ea 213c 2b88 00bd
00000240: 3b97 a6bb f737 b03c 747b 0cbc b5a4 bb3c
00000250: d2da a73b e24f cfbc d32c d23d 811d d43c
00000260: f3a0 98bd 0235 babc 62ae 273d 7a8b 0c3d
00000270: eb7c dfbd 42b7 bebd d3f6 8bbd a361 443b
00000280: 7d38 fbbc 9d75 13bd 7657 1cbd 73b3 a0bb
00000290: 6d2a 7a3d 3b6d 1e3d 24af 813d b4f8 ac3d
000002a0: 48d3 ca3d 5099 773d 239e a33c f5ec 853c
000002b0: 00b5 febc 1095 493c 91ff 873d a539 773d
000002c0: 9af2 1a3d 47cf bebc f31e 98bc ea1f 93bc
000002d0: f9c1 5dbc b607 2c3c 87de 1e3c 92d9 c4bd
000002e0: 88a2 35bd 3feb 273d 9bde 0f3c 7028 cb3b
000002f0: 2dab e6bd cd2f c8bd a653 123c 3493 e8ba
00000300: eed4 39bd 28f5 cbbd a785 bfbd 43bb 943d
00000310: 851b 0bbc 1d75 93bd 8207 a5bd 4112 43bd
00000320: b6ab 4e3d 3bdf 16bd a0de 32bd f86a a63d
00000330: 6b5e a53b 12a8 593b a55c cfbb 2d97 d03c
00000340: 71be 59bc 3a61 e8bc 7986 023d 8521 c93c
00000350: 3229 643d 3225 493c 0d45 aa3c 95ce 54bd
00000360: 1924 2b3d b699 37bd 4251 29bd 1a8d 3d3d
00000370: 45ac aebc cdbf adbc 16a4 953c 4d53 42bd
00000380: 74e4 463c 892a 913d d8ba 0fbc 85cf 1abd
00000390: 7806 0c3d 4721 9f3d 1d10 04bd 5479 8abd
000003a0: 4c55 dfbd 3193 83bd 1d7f edbc 4e47 64bd
000003b0: 73c0 90bd cc31 acbc c506 e6bc 032b 7abd
000003c0: baf2 1fbd dee1 84bd 4b0b 17bd af84 6fbc
000003d0: 357f 07bd 619d a23d 5d95 693d b279 363d
000003e0: a741 823d b48c 953c 01fb e9bc 851e 453d
000003f0: 0090 0abd 0018 9f3d d418 823d 6768 d33b

bias f4 [120]
0.01848155 -0.058505815 -0.015563854 0.07735412 -0.022003079 0.040982086 0.009432089 -0.07656926
-0.017312497 0.16864584 0.114099175 -0.020954505 0.0728148 0.11478545 0.044725858 -0.0037217885
0.09979672 -0.01379211 0.087256655 0.22492829 0.0859014 0.007956954 0.10715126 0.033244837
-0.03368827 0.10439145 0.04629805 0.067464896 0.030043663 -0.015964217 -0.048157528 -0.0046213786
-0.014376128 0.008784149 0.10999162 -0.06897751 -0.08971089 -0.0010756862 0.004046749 0.06377292
-0.024171187 -0.04678115 0.049265396 -0.0029879862 0.025194446 0.016788464 -0.04969154 0.014525966
0.13544278 0.09784792 0.13726702 -0.006581351 0.22451481 0.13353156 -0.05868491 0.07841742
0.1716526 -0.03430374 0.12135182 0.112430125 -0.019821066 0.19372623 -0.00053927023 -0.02020054
0.073298275 0.08098543 0.015828058 0.09260884 0.117954716 -0.18297754 0.053391397 0.05745684
0.13830525 -0.0032841864 0.0073491074 0.008150051 -0.05223207 0.04566931 0.19156131 0.017579602
0.19049634 -0.027369631 -0.025603585 0.033002175 0.06040869 0.08372795 0.00023595015 -0.02572734
0.037086762 -0.055327766 -0.08419404 0.071427286 0.0031629575 0.32090026 0.10084596 -0.038362417
-0.117739424 -0.007699748 -0.10012594 -0.044929966 0.0579841 -0.032697693 -0.01990541 -0.04578882
0.11615592 0.14550862 0.011180421 0.045400605 0.05359773 -0.07232191 -0.205737 -0.018407857
-0.021795394 -0.006537229 -0.033414435 0.09274729 0.053690042 0.0037654447 0.060185615 0.017563503
00000000: 9f66 973c cba3 6fbd 89ff 7ebc d66b 9e3d
00000010: cd3f b4bc d5dc 273d 0c89 1a3c 58d0 9cbd
00000020: f0d2 8dbc 7fb1 2c3e d4ac e93d c8a8 abbc
00000030: ed1f 953d a214 eb3d 7632 373d 40e9 73bb
00000040: 3962 cc3d 4df8 61bc 9eb3 b23d 9a53 663e
00000050: 13ed af3d e25d 023c 1f72 db3d bd2b 083d
00000060: b6fc 09bd 2fcb d53d 06a3 3d3d 092b 8a3d
00000070: 211e f63c 64c7 82bc d440 45bd ef6e 97bb
00000080: da89 6bbc 64eb 0f3c 4943 e13d 1544 8dbd
00000090: 58ba b7bd 0afe 8cba 979a 843b 609b 823d
000000a0: a702 c6bc 979d 3fbd 83ca 493d 17d2 43bb
000000b0: 9564 ce3c f687 893c 5b89 4bbd 51fe 6d3c
000000c0: 83b1 0a3e 7e64 c83d ba8f 0c3e 60a8 d7bb
000000d0: 36e7 653e 7fbc 083e 975f 70bd 5099 a03d
000000e0: b3c5 2f3e 1482 0cbd 4e87 f83d c441 e63d
000000f0: ca5f a2bc 2b60 463e d05d 0dba 9a7b a5bc
00000100: 681d 963d b0db a53d d8a9 813c b4a9 bd3d
00000110: 3e92 f13d 775e 3bbe f0b0 5a3d dd57 6b3d
00000120: e49f 0d3e 813b 57bb c8d0 f03b cb87 053c
00000130: 4cf1 55bd be0f 3b3d a628 443e 1903 903c
00000140: 7911 433e 4736 e0bc 9cbe d1bc 4a2d 073d
00000150: 1a6f 773d 8f79 ab3d 6369 7739 24c2 d2bc
00000160: 4ae8 173d 5e9f 62bd ed6d acbd 7848 923d
00000170: 9f49 4f3b 0a4d a43e 5488 ce3d e921 1dbd
00000180: 5e21 f1bd 2b4e fcbb d40e cdbd 7c08 38bd
00000190: bc80 6d3d 04ee 05bd ac10 a3bc 0f8d 3bbd
000001a0: 28e3 ed3d 3600 153e 162e 373c fcf5 393d
000001b0: 4b89 5b3d 821d 94bd b8ac 52be 13cc 96bc
000001c0: 418c b2bc 4036 d6bb 93dd 08bd 4bf2 bd3d
000001d0: 17ea 5b3d aec5 763b 3185 763d 56e1 8f3c

weight f4 [84, 120]
-0.06023658 0.10471393 -0.040454544 -0.022410538 0.08333946 0.063768774 -0.018191613 -0.0021477412
0.048175424 0.01333168 -0.06539365 0.06928785 0.05604325 -0.052568715 -0.031603854 0.012794558
0.0038983996 0.085851096 -0.03003841 0.04787872 0.0578942 0.082974836 -0.044368133 -0.0677034
0.07597961 -0.06197726 -0.07966883 0.043225925 -0.10674434 -0.017431295 0.030335132 0.028605688
-0.005534335 -0.05553583 0.017181978 -0.08458237 -0.06683074 0.062405944 -0.007691085 -0.07756748
-0.042317517 -0.06161028 -0.037176836 -0.053551298 -0.02404366 -0.04413511 -0.013898553 -0.054034792
0.058182903 0.03584105 0.025756743 0.0037755396 0.012792266 0.012904901 0.0004066285 -0.010185746
0.0036302202 -0.006715378 -0.0654905 -0.012170909 0.0952186 0.083836876 -0.020518767 0.09311487
0.007662326 -0.07717299 0.09742488 -0.09845994 -0.03163491 0.08510986 0.07455239 -0.07412918
-0.06882173 -0.086743265 -0.089591205 -0.053651042 -0.10283688 0.009947634 0.0044187414 0.06072847
-0.10177311 -0.00367852 -0.0659028 0.049451753 -0.06374726 0.04861899 0.05672355 0.050526544
0.024463082 -0.0032013739 0.11434191 0.031857077 0.016847152 -0.00038937476 -0.046782985 0.01321779
0.03930005 0.012275111 0.06462275 -0.012900451 -0.059622373 0.000762875 -0.034760684 0.052059215
-0.033543505 -0.06078384 -0.04954739 -0.045577303 -0.0734614 0.016426047 -0.0441388 0.02325616
0.033247765 0.051444814 0.034883145 -0.09077251 0.051146396 -0.02417394 0.033777848 -0.06493213
-0.09644544 -0.019516531 0.10170233 0.0754098 -0.07715293 0.052473377 -0.065623246 -0.061182488
-0.061673578 0.030003048 0.091987826 -0.07994891 0.023961913 -0.034661885 -0.1003956 -0.10850933
-0.0036303392 0.09323615 0.053145766 -0.07102242 -0.003288281 -0.08991402 -0.1486591 -0.0628865
-0.04154667 -0.076296374 -0.051148187 -0.030835431 -0.1376262 -0.01121674 0.0012869182 -0.052218534
-0.008793815 0.030740675 -0.0048855213 -0.057062406 -0.013729445 0.04419155 -0.069598496 -0.080088764
0.045045275 0.091589995 -0.0039107013 0.047986254 -0.053246737 0.039911147 -0.056353416 0.050005343
0.1072984 -0.07657887 -0.09105073 -0.05651889 0.044618584 0.05651114 0.049144838 0.065452315
0.015277491 -0.048831094 -0.07260979 0.032168288 -0.015157214 0.05769507 0.0255816 -0.057872485
0.014300739 0.007871339 -0.045914073 0.037840635 -0.007984225 -0.019195322 -0.07172922 0.1058742
0.035639364 -0.054238625 0.075965114 -0.00017430098 -0.038262628 -0.065812886 0.037951924 -0.06965393
-0.033374935 -0.040558573 -0.031095318 -0.10939887 0.10587538 -0.0075450595 -0.078664795 -0.08705085
0.01226321 0.08101524 -0.00468477 0.06449884 0.08569651 0.08821649 -0.03665638 -0.04168016
-0.012292355 0.055646837 -0.007940406 0.06646811 0.09284546 0.08138081 -0.07218972 0.1375793
0.032286894 0.035780568 0.035954453 0.09085474 -0.037022293 0.033079676 -0.10135609 0.100330554
-0.041188058 -0.012447459 -0.08268142 0.06496081 0.06761864 0.025319211 -0.009746003 0.008412902
0.037163682 0.10313606 0.07281956 -0.02469672 0.06227432 -0.10444989 -0.05572082 -0.21652596
0.03154086 0.16973327 -0.03778026 -0.13861492 -0.007212831 0.06380553 -0.09589224 -0.055159096
00000000: a2ba 76bd 4274 d63d aab3 25bd 4e96 b7bc
00000010: e1ad aa3d 3499 823d 9406 95bc 1ec1 0cbb
00000020: 9853 453d 1e6d 5a3c 1bed 85bd cae6 8d3d
00000030: 9b8d 653d 4b52 57bd 0b73 01bd 44a0 513c
00000040: 4b7c 7f3b b3d2 af3d 1d13 f6bc 7a1c 443d
00000050: 7822 6d3d b6ee a93d 5cbb 35bd 15a8 8abd
00000060: 339b 9b3d dedb 7dbd 6929 a3bd ab0d 313d
00000070: c79c dabd 13cc 8ebc 6281 f83c 7a56 ea3c
00000080: 5e59 b5bb 8a79 63bd 38c1 8c3c 8639 adbd
00000090: 8ede 88bd 609d 7f3d 7f05 fcbb b3db 9ebd
000000a0: 2255 2dbd 105b 7cbd bd46 18bd 9b58 5bbd
000000b0: 36f7 c4bc 04c7 34bd c2b6 63bc 9653 5dbd
000000c0: 3251 6e3d 11ce 123d ceff d23c 0b6f 773b
000000d0: a796 513c 146f 533c c130 d539 1de2 26bc
000000e0: fde8 6d3b ac0c dcbb e21f 86bd 7e68 47bc
000000f0: f801 c33d abb2 ab3d f916 a8bc 02b3 be3d
00000100: 4014 fb3b df0c 9ebd b286 c73d 5da5 c9bd
00000110: 9b93 01bd 144e ae3d ecae 983d 0ad1 97bd
00000120: 68f2 8cbd 74a6 b1bd 987b b7bd 32c1 5bbd
00000130: 249c d2bd 67fb 223c 17cb 903b 6bbe 783d
00000140: 6c6e d0bd 5313 71bb 0cf8 86bd ec8d 4a3d
00000150: ec8d 82bd b524 473d f456 683d ecf4 4e3d
00000160: cd66 c83c 24ce 51bb 172c ea3d 917c 023d
00000170: 0a03 8a3c ff24 ccb9 849f 3fbd 6e8f 583c
00000180: 17f9 203d 8c1d 493c ef58 843d 6a5c 53bc
00000190: 9736 74bd adfb 473a 3861 0ebd 0b3c 553d
000001a0: ea64 09bd 7af8 78bd 34f2 4abd 44af 3abd
000001b0: ee72 96bd eb8f 863c e3ca 34bd b483 be3c
000001c0: cf2e 083d ccb7 523d a1e1 0e3d f0e6 b9bd
000001d0: e27e 513d 6d08 c6bc a45a 0a3d 23fb 84bd
000001e0: 3085 c5bd 22e1 9fbc 5049 d03d 7470 9a3d
000001f0: 5b02 9ebd 53ee 563d 7b65 86bd 7d9a 7abd
00000200: 6f9d 7cbd f4c8 f53c 1d64 bc3d 41bc a3bd
00000210: c64b c43c 9ff9 0dbd 359c cdbd 243a debd
00000220: fcea 6dbb 98f2 be3d 60af 593d 3474 91bd
00000230: 3380 57bb d724 b8bd 173a 18be a3ca 80bd
00000240: d72c 2abd 4641 9cbd c380 51bd 969a fcbc
00000250: e2ed 0cbe 6bc6 37bc cfad a83a 1ae3 55bd
00000260: ef13 10bc ded3 fb3c b916 a0bb 45ba 69bd
00000270: 77f1 60bc 3302 353d a889 8ebd 9405 a4bd
00000280: 6581 383d 8993 bb3d 5725 80bb 3c8d 443d
00000290: 4019 5abd df79 233d d7d2 66bd 67d2 4c3d
000002a0: 43bf db3d 62d5 9cbd ce78 babd 5a80 67bd
000002b0: fac1 363d 3a78 673d 194c 493d dd0b 863d
000002c0: 714e 7a3c 1d03 48bd 71b4 94bd e5c2 033d
000002d0: f755 78bc aa51 6c3d 8190 d13c b30b 6dbd
000002e0: a64d 6a3c caf6 003c 6510 3cbd c8fe 1a3d
000002f0: 44d0 02bc 823f 9dbc c5e6 92bd 93d4 d83d
00000300: 95fa 113d 5229 5ebd 9993 9b3d 90c4 36b9
00000310: 46b9 1cbd e8c8 86bd 7a73 1b3d b8a6 8ebd
00000320: 28b4 08bd bf20 26bd 9cbb febc 840c e0bd
00000330: 31d5 d83d 8c3c f7bb 021b a1bd b747 b2bd
00000340: a1eb 483c 51eb a53d b382 99bb f817 843d
00000350: a781 af3d d9aa b43d 0025 16bd d1b8 2abd
00000360: e065 49bc f0ed 633d 7a18 02bc 6f20 883d
00000370: c325 be3d fbaa a63d 34d8 93bd 97e1 0c3e
00000380: 433f 043d a58e 123d fa44 133d 0d12 ba3d
00000390: b0a4 17bd 8e7e 073d c893 cfbd 1b7a cd3d
000003a0: cfb4 28bd 6df0 4bbc e054 a9bd 2c0a 853d
000003b0: a47b 8a3d 3c6a cf3c b3ad 1fbc 45d6 093c
000003c0: f238 183d 0039 d33d 6c22 953d c750 cabc
000003d0: 5b13 7f3d d3e9 d5bd 843b 64bd fbb8 5dbe
000003e0: fd30 013d 8fce 2d3e 79bf 1abd 12f1 0dbe
000003f0: 9d59 ecbb 79ac 823d 2763 c4bd 81ee 61bd

bias f4 [84]
-0.03868424 0.027212255 0.49603096 0.09255913 0.1201658 0.16156457 0.019477108 0.055181768
-0.014957062 -0.17110293 0.030142976 -0.05442583 -0.06653706 0.010168062 0.22315957 -0.007888852
-0.024539443 0.037607048 -0.024697866 0.10837398 -0.08788194 0.009592554 -0.112284675 0.23807107
0.2624317 -0.13621612 0.060696192 0.07897473 0.14822145 0.044514075 -0.04568297 -0.0186939
0.09462672 0.07890503 0.23454459 0.011852356 0.24562779 -0.014108843 -0.03308103 0.09223301
0.064401396 -0.08415445 -0.073856205 0.03379467 0.082133494 0.04168025 0.20618302 0.3714041
-0.034447897 0.16264832 0.24188721 0.26590768 0.23141646 0.20582934 -0.07074606 0.045974143
0.10457235 -0.10125551 0.7591965 0.18043984 -0.13019176 -0.020437315 0.06689091 0.28335756
0.0029770285 0.017186398 0.2731305 0.1544784 -0.10881021 -0.048166484 0.062474143 -0.019036599
0.0959394 -0.080535285 -0.062019277 0.050147835 0.030382296 0.07923735 0.08024281 -0.044767912
-0.107213356 0.13967721 0.08613793 -0.048152223
00000000: 5e73 1ebd 3cec de3c c5f7 fd3e a48f bd3d
00000010: 7d19 f63d 2f71 253e 758e 9f3c 4706 623d
00000020: 770e 75bc 9b35 2fbe 67ee f63c 9eed 5ebd
00000030: 9544 88bd f197 263c f183 643e 3e40 01bc
00000040: f106 c9bc d909 1a3d 2e53 cabc 2df3 dd3d
00000050: 72fb b3bd 162a 1d3c 82f5 e5bd e7c8 733e
00000060: 735d 863e 3d7c 0bbe 929c 783d 81bd a13d
00000070: 5dc7 173e 6454 363d 111e 3bbd f323 99bc
00000080: a7cb c13d f698 a13d 752c 703e 6230 423c
00000090: da85 7b3e c728 67bc f97f 07bd a9e4 bc3d
000000a0: e1e4 833d 2b59 acbd ec41 97bd 486c 0a3d
000000b0: 9b35 a83d e9b8 2a3d a421 533e ae28 be3e
000000c0: 3d19 0dbd 488d 263e 48b1 773e 0d25 883e
000000d0: 70f8 6c3e edc4 523e 4fe3 90bd 624f 3c3d
000000e0: 072a d63d 0c5f cfbd b45a 423f 39c5 383e
000000f0: fd50 05be 286c a7bc 1afe 883d 3e14 913e
00000100: 401a 433b 7dca 8c3c c3d7 8b3e 962f 1e3e
00000110: e3d7 debd 384a 45bd e3e4 7f3d a4f2 9bbc
00000120: e07b c43d afef a4bd ed07 7ebd d167 4d3d
00000130: 4be4 f83c 3147 a23d 5856 a43d 8f5e 37bd
00000140: ad92 dbbd 8b07 0f3e 1569 b03d 443b 45bd

weight f4 [10, 84]
-0.0567978 0.011966446 -0.0877305 -0.018130979 -0.025793431 0.20954786 0.10372974 0.09227704
0.05363651 0.0760715 0.028234756 0.04461734 0.024849175 0.24005704 -0.078172706 0.06522928
0.06113654 -0.05557786 -0.033821665 -0.026949534 -0.15264738 0.11865934 0.051765252 -0.07023369
-0.084303044 0.14522536 0.17684036 0.0058227167 0.11315019 0.11829385 0.051674012 -0.02750882
0.06228586 0.0024392311 -0.020889295 0.2589552 -0.15604934 -0.15084593 0.06341194 -0.17919588
0.05956264 -0.08702107 -0.053191945 0.081948824 0.27163583 -0.08893797 0.15408088 0.034777943
-0.088769145 0.03898714 -0.086389855 -0.07821018 0.2928176 0.18529394 -0.024476092 0.103121884
-0.13504678 0.010857003 -0.3524116 0.34425452 -0.12210892 0.0348836 0.066420406 0.020337708
-0.10037464 -0.066374086 0.24574712 -0.21264935 0.12859051 -0.16820817 0.21231703 -0.01919227
-0.19131753 -0.11486463 0.045932584 -0.23322645 0.2016778 0.0024066044 0.07433418 0.046068735
0.031465627 0.23280656 0.27922186 -0.06315093 -0.08694023 -0.09325683 -0.3294181 -0.0376146
0.05974475 0.02146976 -0.049927548 -0.026581042 -0.05455309 0.22739348 0.023868889 -0.026463665
-0.03547305 0.071122624 -0.2471447 0.12325824 -0.009328099 0.19254686 0.06037744 -0.26775625
0.08367258 0.017678738 -0.1822441 0.010234803 -0.07608442 0.18081233 0.1561532 0.17977011
-0.15425831 0.09147618 0.056371443 -0.096415214 0.16830918 -0.10446079 -0.11156769 -0.00025747396
-0.2560792 0.090466335 0.16834934 0.36765358 0.098024584 0.046939738 -0.0075223413 0.15935785
-0.121703364 -0.141737 -0.2504808 -0.24017906 0.090466715 0.20502236 0.048905827 -0.11576414
-0.06141149 -0.21997125 -0.021186141 -0.0065359846 -0.0898713 0.08945442 -0.30290788 0.16878462
-0.079662226 0.009974431 -0.04845157 -0.3004805 -0.020028787 -0.111974195 -0.03858945 -0.07941102
0.14646043 0.3574834 -0.2562468 0.18875077 -0.08010975 0.13219698 0.1388093 -0.24130777
0.023063064 0.03127329 0.27305567 -0.027598243 -0.0035843598 0.30771354 0.16768633 -0.09680001
0.10390998 0.24365962 -0.05280779 0.101944014 -0.14519487 -0.013247172 0.15732963 -0.029125141
-0.11098414 -0.06994853 -0.06456493 0.07249295 0.054510504 -0.13621823 0.1551091 -0.099659696
-0.017525159 -0.082753584 -0.07665525 0.21787901 0.10057362 0.11622047 -0.18258306 0.005319699
0.012377072 0.24677996 -0.11091104 -0.031589303 0.29049024 -0.17614777 -0.110674866 0.15013236
-0.1740256 -0.1490088 -0.23099816 0.016221339 0.033352163 0.09199857 0.123624586 -0.1322608
0.017554644 0.0811312 -0.06598899 -0.17719562 0.013135549 -0.06406151 0.170302 0.03452946
0.07126619 -0.01547848 0.004168678 -0.016877996 0.029971598 0.21222751 0.061082624 0.07480371
-0.07240716 -0.042083595 0.35452473 0.1462917 -0.040843707 -0.087674305 -0.033568826 0.32359827
-0.13276479 -0.11445037 0.03302297 -0.0011116841 -0.093022056 -0.04524414 0.06417523 0.01835747
0.20553394 -0.1224899 0.12645164 0.029318793 0.18955405 -0.05203892 -0.074062325 -0.08855419
-0.025360677 0.060198825 -0.03835087 0.045549046 0.078599595 -0.1693422 0.16475971 -0.001978431
00000000: cfa4 68bd ea0e 443c 0cac b3bd 6b87 94bc
00000010: bf4c d3bc b793 563e 4270 d43d bffb bc3d
00000020: f5b1 5b3d 60cb 9b3d 934c e73c acc0 363d
00000030: 7f90 cb3c 83d1 753e 0319 a0bd ee96 853d
00000040: 4f6a 7a3d 9ca5 63bd 9688 0abd 45c5 dcbc
00000050: 984f 1cbe ab03 f33d cd07 543d aed6 8fbd
00000060: 13a7 acbd f5b5 143e a415 353e 7dcc be3b
00000070: 49bb e73d 0c44 f23d 21a8 533d 2d5a e1bc
00000080: 751f 7f3d 82db 1f3b 0720 abbc c795 843e
00000090: 66cb 1fbe 5b77 1abe 1fde 813d 207f 37be
000000a0: f4f7 733d 1a38 b2bd ccdf 59bd c9d4 a73d
000000b0: da13 8b3e 1c25 b6bd 61c7 1d3e 5173 0e3d
000000c0: 99cc b5bd fbb0 1f3d 2aed b0bd a92c a0bd
000000d0: 30ec 953e b2bd 3d3e 1682 c8bc 9131 d33d
000000e0: b449 0abe 92e1 313c 4b6f b4be 2142 b03e
000000f0: 3e14 fabd 1be2 0e3d 6c07 883d 449b a63c
00000100: 3891 cdbd 23ef 87bd 22a5 7b3e c0c0 59be
00000110: 3bad 033e c33e 2cbe a369 593e 1b39 9dbc
00000120: bee8 43be 263e ebbd ce23 3c3d ead2 6ebe
00000130: a084 4e3e 1fb8 1d3b 853c 983d 92b2 3c3d
00000140: 1ae2 003d d864 6e3e 2bf6 8e3e 4655 81bd
00000150: b80d b2bd 70fd bebd 7da9 a8be c411 1abd
00000160: e9b6 743d 5ae1 af3c d480 4cbd 7cc0 d9bc
00000170: 1073 5fbd d6d9 683e b088 c33c 54ca d8bc
00000180: 304c 11bd bda8 913d 8013 7dbe d16e fc3d
00000190: e2d4 18bc 012b 453e 564e 773d 5917 89be
000001a0: 885c ab3d 00d3 903c 339e 3abe e0af 273c
000001b0: 26d2 9bbd de26 393e a0e6 1f3e a815 383e
000001c0: e4f5 1dbe dd57 bb3d bee5 663d 5775 c5bd
000001d0: 3e59 2c3e 8aef d5bd 9a7d e4bd 92fd 86b9
000001e0: d01c 83be 6a46 b93d c563 2c3e 173d bc3e
000001f0: 1dc1 c83d e243 403d f97d f6bb b42e 233e
00000200: 9d3f f9bd 8123 11be 053f 80be 80f1 75be
00000210: 9d46 b93d 62f1 513e 7a51 483d c015 edbd
00000220: 9d8a 7bbd 2540 61be 8f8e adbc d02b d6bb
00000230: 720e b8bd e133 b73d be16 9bbe e0d5 2c3e
00000240: f325 a3bd cc6b 233c 2775 46bd 95d8 99be
00000250: 6913 a4bc ba52 e5bd f90f 1ebd 3fa2 a2bd
00000260: b9f9 153e 1008 b73e c832 83be e247 413e
00000270: 9510 a4bd a55e 073e 0624 0e3e 6219 77be
00000280: c0ee bc3c 6c18 003d f4cd 8b3e b615 e2bc
00000290: 94e7 6abb a18c 9d3e f7b5 2b3e 153f c6bd
000002a0: c1ce d43d e881 793e fb4c 58bd 06c8 d03d
000002b0: f7ad 14be ab0a 59bc 051b 213e d997 eebc
000002c0: a74b e3bd 2d41 8fbd 9e3a 84bd 2f77 943d
000002d0: 6846 5f3d cb7c 0bbe ebd4 1e3e 621a ccbd
000002e0: ec90 8fbc b67a a9bd 6dfd 9cbd ad1b 5f3e
000002f0: 8bf9 cd3d ff04 ee3d 0ef7 3abe df50 ae3b
00000300: 34c9 4a3c e3b3 7c3e 5425 e3bd c963 01bd
00000310: 23bb 943e 1560 34be 81a9 e2bd 4cbc 193e
00000320: c433 32be c395 18be c88a 6cbe 9de2 843c
00000330: 479c 083d bf69 bc3d e32e fd3d 606f 07be
00000340: c2ce 8f3c 1d28 a63d 3c25 87bd c572 35be
00000350: 7c36 573c ae32 83bd a663 2e3e c36e 0d3d
00000360: 02f4 913d 7399 7dbc 6899 883b b943 8abc
00000370: ff86 f53c 2b52 593e c631 7a3d b032 993d
00000380: 354a 94bd d95f 2cbd 4484 b53e 7ecd 153e
00000390: bb4b 27bd 968e b3bd 777f 09bd acae a53e
000003a0: 7ef3 07be f564 eabd 1843 073d eeb5 91ba
000003b0: 5982 bebd eb51 39bd 4e6e 833d 6862 963c
000003c0: 7d77 523e fcdb fabd 8a7c 013e f72d f03c
000003d0: 751a 423e c326 55bd fdad 97bd e65b b5bd
000003e0: 32c1 cfbc 0b93 763d cd15 1dbd a391 3a3d
000003f0: d3f8 a03d 0b68 2dbe c5b6 283e 90a8 01bb

bias f4 [10]
-0.31955993 -0.41081285 0.014048954 0.32609755 0.6051689 -0.18868694 0.47985345 -0.34871483
0.14916338 -0.4213117
00000000: 5c9d a3be 1056 d2be 952d 663c 42f6 a63e
00000010: 59ec 1a3f 2637 41be 5aaf f53e c08a b2be
00000020: 49be 183e 2bb6 d7be
