storage/1602148331_model.pt (torch_old, 264427 bytes, 10 tensors)

weight f4 [6, 3, 5, 5]
-0.1947319 -0.10163064 0.07627037 0.086533174 0.15465309 -0.033789836 0.1480059 0.49351543
0.4056493 0.31989858 0.12423852 0.34938186 0.5693012 0.4206379 0.18068862 -0.009374286
0.20608291 0.25853953 0.08134514 -0.049117494 0.0105401715 -0.10321356 -0.40402442 -0.5024879
-0.36230147 -0.15795487 -0.14928792 0.08263099 -0.09448861 -0.19479044 -0.10020523 -0.21328914
0.046363316 0.060029622 -0.018594136 0.046970595 -0.044470455 0.22698203 -0.0837021 -0.14805399
-0.10551903 -0.30851123 -0.08857219 -0.31546718 -0.43690053 -0.19275078 -0.30704433 -0.42904177
-0.5727598 -0.35694307 -0.07554348 -0.19248767 -0.028403679 -0.13514428 0.029296262 0.022369402
-0.010563271 0.007586851 -0.044031177 0.041274782 0.2176106 0.11586762 0.19489947 -0.023546595
-0.011605074 0.07473031 -0.05961251 0.14824402 -0.07768584 0.09839143 0.25092852 -0.11724543
-0.05539292 -0.018502815 0.26602665 0.012631674 -0.051067553 -0.05086814 -0.17591941 -0.110463694
-0.06524145 0.11353669 0.060542468 -0.117259815 -0.030809846 -0.06469755 0.07701199 0.0023571511
0.016239762 -0.11747363 -0.112475045 -0.09983095 -0.033487342 0.046148848 -0.155831 -0.02264478
-0.10451661 -0.10774531 2.1519225e-05 0.0790553 -0.08295166 0.034431078 -0.058658343 -0.23212804
-0.098270155 0.056313813 -0.06439483 -0.14231637 -0.1439998 -0.1671249 0.07924245 -0.061516214
-0.017773895 0.027810186 -0.21826115 -0.009819675 0.12329753 0.09090774 -0.079411864 -0.03620207
-0.039608505 0.08167077 -0.06404841 0.011961416 -0.055522736 0.22261962 0.14200117 0.06470724
0.0002122327 -0.18044996 0.14785784 0.30132356 0.14179869 0.09855166 -0.18399248 0.12391957
0.32656488 0.26606417 0.026069853 -0.06259127 0.17741205 0.2974972 0.1901025 0.096533336
0.1294657 0.13306542 0.12142992 0.30024695 0.17438525 0.0138815455 -0.13254885 -0.13383038
0.37921634 -0.046286397 -0.04732488 -0.3682692 -0.038559847 0.56484276 0.074797966 -0.47176558
-0.20158544 -0.048742816 0.33421555 0.03360234 -0.32991633 0.19582057 -0.14405026 -0.044709478
0.11444448 -0.033058852 0.21525565 -0.104387425 -0.2556838 0.112566225 -0.17061403 -0.15003827
0.16085826 0.552698 0.19860059 -0.07597742 -0.25861838 0.14078225 0.6919622 0.20715858
-0.4794476 -0.14517938 0.2443636 0.50958055 0.17141457 -0.28901446 0.2502616 0.20344113
-0.013158099 0.2915221 -0.15517695 0.34718373 0.13760361 -0.0568626 0.33553925 -0.040228613
-0.17524719 -0.2012803 0.32106662 -0.09399455 -0.32641774 -0.35779917 -0.13160929 0.37495598
0.083122425 -0.5680668 -0.34669778 0.016951777 0.21485518 -0.030066336 -0.2924997 0.02684551
-0.09533969 -0.06427263 0.043889407 -0.09396091 -0.031817857 -0.15183271 -0.103157505 0.10850839
-0.25629696 0.039115187 0.0602582 0.16062132 0.25778383 0.15495785 -0.257607 -0.41506767
-0.37340018 -0.4246401 -0.35852817 -0.17773719 -0.25724974 -0.47851735 -0.36881095 -0.17444523
0.10277811 0.31731012 0.3939415 0.19470142 0.056184832 0.23536113 0.27631804 0.31776288
0.2741115 0.1675559 0.21966167 0.2700151 0.28854448 0.17675903 0.06352306 -0.02464755
00000000: cd67 47be ba23 d0bd a433 9c3d 4e38 b13d
00000010: 615d 1e3e 3667 0abd dc8e 173e 0eae fc3e
00000020: 44b1 cf3e bfc9 a33e c470 fe3d 2ee2 b23e
00000030: b9bd 113f da5d d73e 7006 393e 9b96 19bc
00000040: 6607 533e 4b5f 843e 4898 a63d 6d2f 49bd
00000050: afb0 2c3c a261 d3bd 4adc cebe 0ca3 00bf
00000060: 947f b9be ecbe 21be efde 18be 703a a93d
00000070: 3f83 c1bd 2577 47be 6638 cdbd 7868 5abe
00000080: 76e7 3d3d 9fe1 753d bb52 98bc 3d64 403d
00000090: a726 36bd fa6d 683e 026c abbd 779b 17be
000000a0: 5c1a d8bd 2ff5 9dbe 5665 b5bd ea84 a1be
000000b0: 6db1 dfbe 7660 45be ea34 9dbe 5dab dbbe
000000c0: 63a0 12bf 3ec1 b6be 8ab6 9abd 7d1b 45be
000000d0: d5ae e8bc 4363 0abe b7fe ef3c 0940 b73c
000000e0: 9211 2dbc 1e9b f83b 095a 34bd bf0f 293d
000000f0: 50d5 5e3e 014c ed3d ba93 473e cae4 c0bc
00000100: 3523 3ebc 340c 993d 3f2c 74bd 48cd 173e
00000110: c119 9fbd 7281 c93d b479 803e 5f1e f0bd
00000120: b0e3 62bd 3793 97bc a534 883e 15f5 4e3c
00000130: 362c 51bd 1c5b 50bd 3824 34be ca3a e2bd
00000140: 4f9d 85bd ed85 e83d 61fb 773d ea25 f0bd
00000150: ee64 fcbc 2680 84bd 76b8 9d3d 6f7a 1a3b
00000160: 4009 853c 0496 f0bd 5159 e6bd 2b74 ccbd
00000170: 062a 09bd 9306 3d3d 2992 1fbe 8c81 b9bc
00000180: ce0c d6bd 93a9 dcbd 2f84 b437 bfe7 a13d
00000190: 8fe2 a9bd 9a07 0d3d bb43 70bd f9b2 6dbe
000001a0: dd41 c9bd 50a9 663d 70e1 83bd 62bb 11be
000001b0: af74 13be ca22 2bbe de49 a23d 6df8 7bbd
000001c0: 8f9a 91bc 30d2 e33c da7f 5fbe b4e2 20bc
000001d0: 6a83 fc3d d62d ba3d b0a2 a2bd 9f48 14bd
000001e0: 873c 22bd 0143 a73d d02b 83bd d1f9 433c
000001f0: cf6b 63bd 66f6 633e c168 113e 3b85 843d
00000200: c88a 5e39 e0c7 38be 0c68 173e 1547 9a3e
00000210: ad33 113e 74d5 c93d 8668 3cbe 8bc9 fd3d
00000220: 8333 a73e 9039 883e 7290 d53c da2f 80bd
00000230: 81ab 353e 8e51 983e 3baa 423e 45b3 c53d
00000240: a892 043e 4d42 083e 40b0 f83d f8b9 993e
00000250: 0c92 323e 6c6f 633c e3ba 07be d50a 09be
00000260: a528 c23e ce96 3dbd bcd7 41bd c88d bcbe
00000270: eef0 1dbd 8999 103f ad2f 993d 428b f1be
00000280: 6a6c 4ebe 8ca6 47bd 4d1e ab3e 9ba2 093d
00000290: cbea a8be 3085 483e e981 13be 4921 37bd
000002a0: de61 ea3d b868 07bd fa6b 5c3e 13c9 d5bd
000002b0: fde8 82be 1f89 e63d 72b5 2ebe a2a3 19be
000002c0: 07b8 243e 9e7d 0d3f f45d 4b3e 0d9a 9bbd
000002d0: a169 84be 3929 103e 6f24 313f 6121 543e
000002e0: 287a f5be e7a9 14be 743a 7a3e df73 023f
000002f0: 4d87 2f3e b4f9 93be 4a22 803e df52 503e
00000300: 1195 57bc 6242 953e b5e6 1ebe 11c2 b13e
00000310: f6e7 0c3e c2e8 68bd cdcb ab3e c2c6 24bd
00000320: 0074 33be 6c1c 4ebe d862 a43e 3780 c0bd
00000330: 3a20 a7be 7431 b7be 96c4 06be 3bfa bf3e
00000340: 173c aa3d d36c 11bf 5f82 b1be 74de 8a3c
00000350: ff02 5c3e ad4d f6bc 85c2 95be 1deb db3c
00000360: 7541 c3bd 5ea1 83bd 61c5 333d 946e c0bd
00000370: 7153 02bd 097a 1bbe 3e44 d3bd a639 de3d
00000380: 5b39 83be 3f37 203d 4dd1 763d ea79 243e
00000390: 3efc 833e 45ad 1e3e 11e5 83be c083 d4be
000003a0: 4f2e bfbe 6d6a d9be 0191 b7be bd00 36be
000003b0: 3db6 83be 3a00 f5be cad4 bcbe c5a1 32be
000003c0: 547d d23d 7976 a23e b3b2 c93e cf5f 473e
000003d0: 1122 663d 8202 713e 8f79 8d3e d1b1 a23e
000003e0: 5858 8c3e c693 2b3e fdee 603e 6b3f 8a3e
000003f0: 1abc 933e 5200 353e 6118 823d a9e9 c9bc

bias f4 [6]
-0.458863 0.09874074 0.051455542 -0.19745085 0.41434973 0.6150457
00000000: 17f0 eabe 9638 ca3d 0cc3 523d 8e30 4abe
00000010: a625 d43e a373 1d3f

weight f4 [16, 6, 5, 5]
-0.016729556 0.014151592 0.07082374 -0.05850266 -0.022126025 0.08271352 -0.026361732 -0.009352422
0.09322245 0.08408077 -0.029763341 0.0038768009 0.00029882224 -0.038331788 0.039644476 0.0029434988
0.0068461965 -0.019530656 0.0068139145 0.03291921 -0.16522521 -0.113960505 -0.1325934 0.0073936256
-0.10922323 0.0039795004 0.0021966791 0.009189378 -0.037222695 -0.011877467 0.04881309 0.09828796
-0.037997905 0.02904921 0.11530768 -0.0297115 0.12093821 -0.050971262 -0.0121421395 0.11281822
-0.060892098 0.11650044 0.014287278 0.029326323 0.0098509295 0.039074056 0.1296578 0.0070088804
0.03979098 0.06909179 -0.11186125 -0.022869863 -0.1530113 -0.0034439247 -0.09247945 -0.0007762029
0.23111948 -0.077928625 0.18650803 -0.05550329 -0.09021329 0.19365816 -0.17081535 0.28139284
-0.0005218243 -0.06403763 0.25337753 -0.13446674 0.22523114 -0.05533782 0.01894537 0.1537084
-0.13021617 0.23017806 0.020349357 0.025325034 0.087642744 0.022662804 0.053490054 0.018266227
-0.034907408 -0.053757336 -0.17511141 -0.015024854 -0.0011225507 0.048188165 -0.019365352 -0.047548983
-0.021402206 -0.051669218 -0.019603034 -0.04208481 0.018615644 -0.057004146 0.059589125 0.015743088
-0.06391533 -0.011334585 0.0071100504 -0.02235636 -0.10995155 0.028664183 -0.057038568 -0.063142076
-0.031132983 0.020595828 -0.07213894 -0.09420263 0.014593682 -0.0841354 0.011930779 0.04902093
-0.046367016 0.022194695 -0.016019695 -0.09594515 0.028311212 -0.041536476 0.06680366 -0.041869596
-0.08632565 0.03932138 -0.12103197 -0.022834953 -0.04023672 -0.081153065 0.049759507 -0.07978406
0.077391595 0.08694722 0.03038011 -0.03254101 0.09384462 -0.01653722 0.02002914 -0.050433442
0.011874904 0.037684876 0.0073344405 -0.01186681 -0.0707242 -0.005661669 0.005903906 0.09910275
-0.024854096 -0.03362332 -0.017147815 -0.041653965 0.050104704 0.05517252 -0.035302106 0.022182284
-0.089678645 0.020134453 0.027737936 0.06785047 0.0054361885 0.02717872 0.10959804 0.16664058
0.08106472 0.09456489 0.10389499 0.094842374 0.14864989 0.13448416 0.1226374 0.026401384
0.14877497 0.060392566 0.045388732 0.025831515 0.07557339 0.041935727 0.027717412 -0.018945657
-0.061439864 -0.06758833 -0.06394845 0.09257675 0.042697687 -0.08728179 -0.036528256 0.023869757
-0.048674636 -0.0386359 -0.001633497 -0.0023985296 -0.0938798 0.045199573 -0.03008601 -4.8687557e-06
-0.112230055 0.008288285 -0.03754899 -0.0005581237 0.041459553 -0.065199256 0.050549407 -0.077981964
-0.10013638 0.028167162 -0.010420911 -0.071062654 -0.06129657 -0.21323901 -0.24014732 -0.18206011
-0.080846414 -0.12365817 -0.25696588 -0.28036892 -0.2983324 -0.24766842 -0.13814564 -0.19019537
-0.24932097 -0.24561821 -0.14369097 -0.08736407 -0.057178285 -0.0023344313 0.037152726 -0.053985704
0.021650279 0.11920022 0.14646453 0.11625917 0.051719867 0.08000732 0.11702071 0.07549735
0.120478824 0.08107668 0.08670767 0.013179543 0.03909896 0.037417993 -0.07147011 0.04517971
-0.05207357 -0.12001906 -0.07394259 -0.10618055 -0.024174612 0.049122225 0.039319023 -0.033973955
-0.001633438 0.033177648 -0.020852502 -0.08060975 0.00235743 0.03930462 0.066720776 0.06535509
00000000: 6c0c 89bc 14dc 673c 090c 913d 7ca0 6fbd
00000010: a341 b5bc b565 a93d 8ff4 d7bc e73a 19bc
00000020: 69eb be3d 8a32 ac3d 40d2 f3bc ed11 7e3b
00000030: 3eab 9c39 cb01 1dbd 3f62 223d b7e7 403b
00000040: 0f56 e03b c1fe 9fbc 4247 df3b 4bd6 063d
00000050: cc30 29be 2064 e9bd 90c6 07be 3a46 f23b
00000060: 6eb0 dfbd 7866 823b 29f6 0f3b 0b8f 163c
00000070: d376 18bd b599 42bc 3cf0 473d 334b c93d
00000080: b1a3 1bbd 9cf8 ed3c 6f26 ec3d 8865 f3bc
00000090: 74ae f73d 3ec7 50bd d3ef 46bc 3d0d e73d
000000a0: fe69 79bd c897 ee3d 3015 6a3c c23d f03c
000000b0: cb65 213c 1e0c 203d 04c5 043e c0aa e53b
000000c0: defb 223d ff7f 8d3d 8317 e5bd 9459 bbbc
000000d0: ffae 1cbe 78b3 61bb de65 bdbd 187a 4bba
000000e0: 96aa 6c3e 0b99 9fbd f6fb 3e3e 6b57 63bd
000000f0: bfc1 b8bd 534e 463e 38ea 2ebe b912 903e
00000100: 09cb 08ba 2926 83bd b3ba 813e a6b1 09be
00000110: fea2 663e e9a9 62bd 5233 9b3c bc65 1d3e
00000120: 6357 05be ccb3 6b3e b2b3 a63c 7276 cf3c
00000130: 0a7e b33d 58a7 b93c 6318 5b3d 0ea3 953c
00000140: 12fb 0ebd a730 5cbd 6850 33be ce2a 76bc
00000150: 8d22 93ba f460 453d 16a4 9ebc b9c2 42bd
00000160: ae53 afbc 1aa3 53bd 8b96 a0bc 1f61 2cbd
00000170: d67f 983c 2e7d 69bd ba13 743d a6f7 803c
00000180: 0ae6 82bd b2b4 39bc 6dfb e83b af24 b7bc
00000190: 472e e1bd 26d1 ea3c 46a1 69bd a250 81bd
000001a0: 990a ffbc 95b8 a83c 95bd 93bd 4fed c0bd
000001b0: 571a 6f3c 2e4f acbd 5079 433c 2cca 483d
000001c0: 57eb 3dbd a6d1 b53c bc3b 83bc e47e c4bd
000001d0: eaec e73c 2722 2abd 5bd0 883d 747f 2bbd
000001e0: 81cb b0bd 750f 213d 9cdf f7bd 5e10 bbbc
000001f0: 42cf 24bd 9433 a6bd a0d0 4b3d d365 a3bd
00000200: 7c7f 9e3d 6211 b23d b5df f83c b949 05bd
00000210: 9c31 c03d 1079 87bc 2714 a43c 4c93 4ebd
00000220: f58e 423c 755b 1a3d bf55 f03b 026d 42bc
00000230: d9d7 90bd 8685 b9bb 8e75 c13b 62f6 ca3d
00000240: d19a cbbc 9bb8 09bd 9379 8cbc 599d 2abd
00000250: 973a 4d3d 95fc 613d f198 10bd 9fb7 b53c
00000260: 70a9 b7bd 02f1 a43c ab3a e33c 30f5 8a3d
00000270: 0e22 b23b e8a5 de3c f074 e03d d4a3 2a3e
00000280: 4305 a63d 3dab c13d e6c6 d43d b83c c23d
00000290: ad37 183e 37b6 093e 5129 fb3d b747 d83c
000002a0: 7758 183e 325e 773d 89e9 393d 9d9c d33c
000002b0: 39c6 9a3d ccc4 2b3d a00f e33c ec33 9bbc
000002c0: 5ea8 7bbd c06b 8abd 68f7 82bd e198 bd3d
000002d0: c5e3 2e3d ccc0 b2bd a79e 15bd 828a c33c
000002e0: 0e5f 47bd ad40 1ebd 101b d6ba a630 1dbb
000002f0: 0d44 c0bd 3023 393d f076 f6bc 4b5e a3b6
00000300: dfd8 e5bd 96cb 073c f8cc 19bd 0c4f 12ba
00000310: 7ed1 293d 3087 85bd e50c 4f3d 02b5 9fbd
00000320: 4d14 cdbd d2be e63c 78bc 2abc 4c89 91bd
00000330: 1d12 7bbd 545b 5abe 2ee9 75be f76d 3abe
00000340: ce92 a5bd 7f40 fdbd 0891 83be 848c 8fbe
00000350: 06bf 98be ca9c 7dbe 0d76 0dbe 93c2 42be
00000360: ff4d 7fbe 5783 7bbe ba23 13be efeb b2bd
00000370: c733 6abd 42fd 18bb 752d 183d 1d20 5dbd
00000380: ed5b b13c 3f1f f43d ccfa 153e 4a19 ee3d
00000390: 36d8 533d e1da a33d 8ea8 ef3d 5b9e 9a3d
000003a0: 9abd f63d 880b a63d ca93 b13d 03ef 573c
000003b0: 3b26 203d 9c43 193d ec5e 92bd 5c0e 393d
000003c0: 194b 55bd 8ecc f5bd 366f 97bd 3075 d9bd
000003d0: d609 c6bc 6334 493d fc0c 213d 4628 0bbd
000003e0: 1619 d6ba 49e5 073d ded2 aabc b916 a5bd
000003f0: 1d7f 1a3b e2fd 203d e7a4 883d e4d8 853d

bias f4 [16]
-0.17805463 -0.104124025 0.37593022 0.020474572 0.12267106 -0.5047029 -0.21821056 0.18401399
-0.48252496 0.2984191 -0.36220932 0.74664485 0.029065182 -0.0713572 -0.16715936 0.8901906
00000000: f453 36be fa3e d5bd ed79 c03e 4aba a73c
00000010: f73a fb3d 3634 01bf 9772 5fbe 2a6e 3c3e
00000020: 830d f7be 63ca 983e 8073 b9be 1e24 3f3f
00000030: 1b1a ee3c b923 92bd d32b 2bbe 88e3 633f

weight f4 [120, 400]
-0.02589946 0.03118392 0.00028144688 0.029649744 -0.015758973 0.001594568 -0.016074652 0.0944505
-0.020854162 0.0011068617 0.02608893 0.0064126793 0.0655667 -0.025198264 0.0028569715 -0.027465118
-0.022312026 -0.006979623 -0.009056348 0.00649709 -0.06071474 -0.070212826 0.0020897721 -0.066018015
0.012154943 0.026874706 -0.0318645 0.011816393 -0.010174269 -0.020107 0.008717056 0.0051217433
-0.01288988 -0.083518475 -0.059115663 0.004763863 -0.02255074 -0.062190313 -0.022318568 0.0427408
0.016447138 -0.05161965 0.02030393 0.047986727 0.03164124 0.0021235296 0.06500707 0.05086517
-0.02025451 -0.057002623 0.052201245 -0.024808474 -0.008101961 0.007736372 0.0785005 0.05258759
-0.07705492 -0.078580864 -0.041782852 0.037446257 -0.042137295 -0.004677621 -0.007724055 -0.049413886
0.04454937 -0.046513177 -0.07504378 -0.008540128 -0.038916744 0.021533756 -0.0016475084 -0.07101654
0.018519398 -0.010967998 0.033583645 0.019125352 0.068164125 0.060678232 0.017834505 0.01027694
-0.06766194 -0.036787603 0.0022517384 -0.031342335 -0.013254761 -0.09462483 0.035500344 0.034401886
0.07326999 0.0110707665 -0.0002121887 0.018852873 0.0161366 0.06486858 0.014734512 -0.06808668
0.009789799 0.04882098 0.025879856 0.030866647 -0.049634404 0.047313944 -0.030742416 -0.027042996
-0.09052875 0.0005859074 -0.0013906292 -0.019771567 -0.029174224 -0.075538725 0.050605122 -0.017119775
-0.023222972 -0.05557335 -0.0012233569 -0.015105687 -0.05106477 -0.044655647 -0.02385896 -0.038783472
-0.076363504 -0.06425655 0.0053157057 0.00840919 -0.009642664 0.0239893 0.019268695 -0.002986684
0.04005038 -0.0055003827 0.014396453 0.031509954 0.019871911 -0.066146374 0.028782621 -0.03405429
-0.026195109 0.057573438 -0.014822432 -0.014826391 0.0077545736 -0.0072105834 0.007007395 -0.031521298
-0.0056607425 0.021650895 -0.010155312 0.019335851 0.0037925341 -0.026171798 0.098078065 0.022322452
-0.075191386 -0.024167975 0.039355587 0.032402318 -0.10812389 -0.092807926 -0.06976567 0.001294397
-0.030247841 -0.036505118 -0.038301244 -0.004780186 0.061174013 0.03689199 0.06017091 0.08085788
0.09726661 0.05677505 0.020307612 0.015257408 -0.034469932 0.0090015745 0.0644323 0.060204785
0.03797721 -0.024859112 -0.018758316 -0.017284254 -0.013247263 0.006090158 0.0047379145 -0.0974692
-0.04314546 0.039454605 0.00410718 0.0023738104 -0.11406101 -0.098625086 0.004186802 -0.003452475
-0.048169997 -0.10145468 -0.09480492 0.06945084 -0.010586164 -0.07484569 -0.0826632 -0.04834992
0.047254838 -0.039655298 -0.045452464 0.079526186 0.0045104283 -0.00017421972 -0.008837809 0.023690803
-0.015027067 -0.030428955 0.0298592 0.022810888 0.053473823 0.0088447025 0.017560333 -0.050622266
0.042461358 -0.044488393 -0.04287932 0.04504318 -0.022684708 -0.02515535 0.015560929 -0.05087124
0.009369775 0.07250961 -0.0076217246 -0.03472843 0.034784578 0.0783588 -0.0331599 -0.06809238
-0.10753512 -0.06246959 -0.027518919 -0.05664768 -0.071303405 -0.021952437 -0.028333988 -0.061097547
-0.038117744 -0.06304222 -0.034255106 -0.013882044 -0.0312496 0.08079113 0.06010507 0.047939178
0.06585072 0.020268431 -0.027674114 0.050618935 -0.031728756 0.07798256 0.06381905 0.006471346
00000000: 1b2b d4bc 6c75 ff3c 298f 9339 05e4 f23c
00000010: f618 81bc d300 d13a fdae 83bc 446f c13d
00000020: 59d6 aabc 1e14 913a 74b8 d53c 7421 d23b
00000030: d647 863d 976c cebc 073c 3b3b 87fe e0bc
00000040: b6c7 b6bc 52b5 e4bb 1461 14bc 8be5 d43b
00000050: 05b0 78bd becb 8fbd 8ff4 083b 7434 87bd
00000060: 8725 473c 5828 dc3c 5a84 02bd 8b99 413c
00000070: fab1 26bc 6fb7 a4bc fcd1 0e3c 4cd4 a73b
00000080: 1330 53bc bc0b abbd 4423 72bd 2e1a 9c3b
00000090: 54bc b8bc 45bb 7ebd 6ed5 b6bc fa10 2f3d
000000a0: 26bc 863c 206f 53bd 6d54 a63c bb8d 443d
000000b0: 3f9a 013d ea2a 0b3b 6d22 853d ff57 503d
000000c0: c9ec a5bc 957b 69bd f9d0 553d 243b cbbc
000000d0: 16be 04bc 6481 fd3b dfc4 a03d 1666 573d
000000e0: f8ce 9dbd 01ef a0bd 7f24 2bbd 3f61 193d
000000f0: 2898 2cbd bb46 99bb 121a fdbb 3766 4abd
00000100: 6679 363d 9a84 3ebd 8eb0 99bd e5eb 0bbc
00000110: 2a67 1fbd 8f67 b03c 35f1 d7ba 1f71 91bd
00000120: feb5 973c 1eb3 33bc 018f 093d c5ac 9c3c
00000130: a299 8b3d bd89 783d ab19 923c 9c60 283c
00000140: 5892 8abd 99ae 16bd e791 133b d260 00bd
00000150: 7f2a 59bc aaca c1bd cf68 113d fee8 0c3d
00000160: 940e 963d 2962 353c f87e 5eb9 5771 9a3c
00000170: e730 843c d1d9 843d 0669 713c 0771 8bbd
00000180: 6565 203c 82f8 473d fe01 d43c 0ddc fc3c
00000190: 724d 4bbd 44cc 413d 85d7 fbbc 4689 ddbc
000001a0: 2367 b9bd 9497 193a c645 b6ba fbf7 a1bc
000001b0: c8fe eebc 0cb4 9abd 5147 4f3d c53e 8cbc
000001c0: 1a3e bebc e2a0 63bd 0c59 a0ba d87d 77bc
000001d0: 4b29 51bd d7e8 36bd de73 c3bc 6bdb 1ebd
000001e0: 7864 9cbd f098 83bd 5f2f ae3b b3c6 093c
000001f0: 44fc 1dbc 3585 c43c 62d9 9d3c 3ebc 43bb
00000200: de0b 243d 8e3c b4bb 1adf 6b3c 9510 013d
00000210: 6bca a23c c077 87bd 88c9 eb3c 837c 0bbd
00000220: 2097 d6bc 20d2 6b3d c9d9 72bc 64ea 72bc
00000230: 141a fe3b c246 ecbb 4a9e e53b 7a1c 01bd
00000240: c07d b9bb 385d b13c 7762 26bc 3866 9e3c
00000250: 2a8c 783b 3d66 d6bc 27dd c83d 93dd b63c
00000260: f1fd 99bd ebfb c5bc 5333 213d 4bb8 043d
00000270: 0f70 ddbd 1512 bebd 4ee1 8ebd c2a8 a93a
00000280: 52ca f7bc 6486 15bd c4e1 1cbd 1ba3 9cbb
00000290: 9a91 7a3d 0e1c 173d c675 763d d198 a53d
000002a0: b733 c73d f48c 683d 265c a63c 35fa 793c
000002b0: 5830 0dbd 577b 133c 15f5 833d 4b99 763d
000002c0: fe8d 1b3d 56a5 cbbc 0aab 99bc b597 8dbc
000002d0: 0c0b 59bc f38f c73b 8240 9b3b ef9d c7bd
000002e0: 4bb9 30bd 279b 213d 8695 863b ee91 1b3b
000002f0: d298 e9bd f3fb c9bd 7131 893b eb42 62bb
00000300: e74d 45bd 79c7 cfbd 1529 c2bd 3e3c 8e3d
00000310: 9771 2dbc b248 99bd 534b a9bd 910a 46bd
00000320: 4a8e 413d 986d 22bd 5d2c 3abd a0de a23d
00000330: 37cc 933b c0ae 36b9 75cc 10bc 3713 c23c
00000340: 1634 76bc 2546 f9bc 489b f43c e6dd ba3c
00000350: 5e07 5b3d 5fe9 103c b0da 8f3c 4b59 4fbd
00000360: f6eb 2d3d 7639 36bd 3aa2 2fbd 337f 383d
00000370: 48d5 b9bc 9812 cebc 44f3 7e3c 5d5e 50bd
00000380: af83 193c eb7f 943d a9bf f9bb 663f 0ebd
00000390: 467a 0e3d 947a a03d add2 07bd 0574 8bbd
000003a0: 5f3b dcbd 1de0 7fbd 5b6f e1bc 6607 68bd
000003b0: 8507 92bd 99d5 b3bc ae1c e8bc 6c41 7abd
000003c0: 5a21 1cbd 481c 81bd 154f 0cbd 8371 63bc
000003d0: 29ff ffbc d275 a53d bc30 763d df5b 443d
000003e0: bedc 863d fb09 a63c d3b4 e2bc cd55 4f3d
000003f0: 03f6 01bd 52b5 9f3d 90b3 823d 960d d43b

bias f4 [120]
0.01654311 -0.06087777 -0.016315185 0.07895234 -0.02223652 0.040982213 0.008842766 -0.07695715
-0.017354243 0.16690478 0.1139154 -0.019774167 0.07342147 0.11188136 0.046346005 -0.0022884163
0.100194596 -0.013256345 0.08683539 0.22464608 0.087121785 0.00901014 0.10729718 0.03446171
-0.033170287 0.1043432 0.045951348 0.06586626 0.030504916 -0.0157627 -0.04808451 -0.00389794
-0.016950743 0.008463039 0.10862904 -0.06766416 -0.08777751 0.0008131508 0.00226214 0.06400664
-0.024201317 -0.04500495 0.048950262 -0.004102319 0.025035448 0.01682955 -0.049788956 0.016773652
0.13549611 0.09774345 0.13626897 -0.0048010875 0.22532138 0.13381259 -0.05810093 0.0772295
0.17067544 -0.03307998 0.12112722 0.11366554 -0.019521601 0.19671473 -0.00049948884 -0.020627245
0.07372855 0.08233334 0.017328082 0.09299403 0.11656196 -0.18339592 0.054602273 0.05845264
0.13710316 -0.0031440726 0.007308754 0.008889148 -0.05158813 0.047377355 0.19017427 0.016832523
0.18886195 -0.02757517 -0.024961187 0.031955767 0.059442237 0.0832985 0.0011540256 -0.02611414
0.03673718 -0.05553969 -0.08442852 0.07178977 0.0047045047 0.3220176 0.101415195 -0.037962515
-0.11758215 -0.008254449 -0.09865212 -0.044384386 0.05875361 -0.031777903 -0.019964173 -0.045572326
0.11750152 0.1473231 0.011411021 0.043903634 0.054013804 -0.073095314 -0.20598665 -0.017637245
-0.02350271 -0.0071104965 -0.033324886 0.093887374 0.05332073 0.0033006037 0.06056621 0.016686821
00000000: 6b85 873c f85a 79bd 6ca7 85bc c4b1 a13d
00000010: 5d29 b6bc f7dc 273d 40e1 103c b69b 9dbd
00000020: 7c2a 8ebc 16e9 2a3e 7a4c e93d 6ffd a1bc
00000030: ff5d 963d 0e22 e53d 4fd5 3d3d 41f9 15bb
00000040: d332 cd3d 2431 59bc c1d6 b13d 9f09 663e
00000050: e86c b23d 449f 133c a0be db3d b927 0d3d
00000060: 91dd 07bd e3b1 d53d 7b37 3c3d e4e4 863d
00000070: 72e5 f93c c720 81bc 43f4 44bd 9574 7fbb
00000080: 49dc 8abc 8fa8 0a3c e778 de3d 8293 8abd
00000090: b2c4 b3bd a029 553a 6940 143b ea15 833d
000000a0: d741 c6bc 1c57 38bd 1280 483d bf6c 86bb
000000b0: 2417 cd3c 20de 893c 81ef 4bbd e668 893c
000000c0: 7ebf 0a3e b82d c83d 188a 0b3e 7152 9dbb
000000d0: a6ba 663e 2b06 093e 3efb 6dbd 802a 9e3d
000000e0: 8bc5 2e3e e07e 07bd 8c11 f83d 7bc9 e83d
000000f0: c4eb 9fbc 966f 493e 21f0 02ba 78fa a8bc
00000100: fefe 963d 629e a83d 9ff3 8d3c a773 be3d
00000110: 09b8 ee3d 24cc 3bbe a2a6 5f3d 096c 6f3d
00000120: c564 0c3e c90c 4ebb 467e ef3b caa3 113c
00000130: 134e 53bd c20e 423d 0bbd 423e 5ce4 893c
00000140: 0765 413e 53e5 e1bc 677b ccbc 0de4 023d
00000150: b479 733d 6798 aa3d ac42 973a 52ed d5bc
00000160: ba79 163d 967d 63bd dce8 acbd 8406 933d
00000170: 3f28 9a3b 7edf a43e c5b2 cf3d 957e 1bbd
00000180: e9ce f0bd ab3d 07bc 1f0a cabd 67cc 35bd
00000190: a0a7 703d 8c29 02bd e88b a3bc 0caa 3abd
000001a0: a3a4 f03d dedb 163e 4bf5 3a3c 4cd4 333d
000001b0: 943d 5d3d ffb2 95bd 2aee 52be fc7b 90bc
000001c0: c188 c0bc 2bff e8bb ad7f 08bd 0648 c03d
000001d0: d666 5a3d f14e 583b 4614 783d cdb2 883c

weight f4 [84, 120]
-0.05973731 0.10623629 -0.03850098 -0.021950727 0.08326879 0.06397822 -0.020288015 -0.00060130114
0.04821752 0.014448483 -0.065472774 0.07105645 0.055962335 -0.054383073 -0.03222935 0.013558069
0.004455062 0.08580477 -0.029995354 0.049455434 0.058103263 0.081658505 -0.042886276 -0.06766812
0.07612807 -0.060012884 -0.08018389 0.04284792 -0.10753344 -0.01623816 0.031345963 0.029242886
-0.0057777567 -0.055606198 0.016637238 -0.08435615 -0.0666659 0.060003977 -0.00639311 -0.07733359
-0.042303547 -0.061048385 -0.03582491 -0.0529758 -0.024043111 -0.044145335 -0.01389756 -0.054029778
0.059705008 0.03389024 0.026111908 0.004550129 0.013662852 0.013494332 0.0013445372 -0.010001632
0.0024283654 -0.0063536083 -0.063847266 -0.012211282 0.096210845 0.08693879 -0.020710079 0.09410324
0.0080631785 -0.07626705 0.09795223 -0.09903733 -0.03097618 0.086615756 0.07374905 -0.07400698
-0.068728395 -0.08507145 -0.09050004 -0.054273818 -0.10138866 0.00953391 0.005248713 0.060604915
-0.101925105 -0.003715489 -0.06564097 0.050445683 -0.06340635 0.047447994 0.057539664 0.051686622
0.024006613 -0.0048167515 0.11089247 0.033019505 0.016770465 -0.00010937486 -0.046627082 0.011380188
0.038764294 0.011992658 0.06484105 -0.012709905 -0.060351234 0.0006618093 -0.034756035 0.054720826
-0.033585556 -0.059529383 -0.049585853 -0.044877276 -0.0711505 0.016233375 -0.04388391 0.02328394
0.033086836 0.05032606 0.03610483 -0.08939188 0.05036631 -0.027676027 0.03211799 -0.06604833
-0.096285395 -0.018630395 0.10078675 0.07483349 -0.077092685 0.051849354 -0.065564364 -0.062378954
-0.06172713 0.032386098 0.09255414 -0.079669684 0.023665471 -0.036300052 -0.099986486 -0.109617725
-0.0038248468 0.094278805 0.053344425 -0.07608573 -0.0018052551 -0.08906695 -0.14992721 -0.06065541
-0.040939905 -0.07601541 -0.048939746 -0.0305305 -0.13493939 -0.009420497 0.0017357852 -0.050573647
-0.008847695 0.033324353 -0.0051015513 -0.056997158 -0.014362531 0.04432089 -0.06850498 -0.07935356
0.045034777 0.0941562 -0.004556753 0.047119986 -0.053243037 0.039914537 -0.05641892 0.04869824
0.105496764 -0.076672666 -0.08910853 -0.052675124 0.04504752 0.058819465 0.048845995 0.070006706
0.012293775 -0.04906779 -0.072616704 0.030156428 -0.014852024 0.061422404 0.0244845 -0.05648005
0.01586879 0.00916267 -0.043408975 0.03521709 -0.007201521 -0.017923383 -0.06971473 0.10549299
0.03460085 -0.053533677 0.075471595 0.0033726844 -0.037293375 -0.063627996 0.03984756 -0.068721674
-0.035493787 -0.040465944 -0.030394262 -0.10876365 0.101394035 -0.006316145 -0.078733906 -0.087268375
0.0128383525 0.083976865 -0.0048198244 0.06468999 0.08539493 0.089477874 -0.03671369 -0.039534744
-0.011693883 0.056324437 -0.0068704006 0.06895477 0.09144803 0.08076817 -0.07218024 0.13609095
0.03514283 0.036173344 0.035915427 0.0892087 -0.037783265 0.03369604 -0.09983578 0.10352889
-0.040297605 -0.011624118 -0.08191754 0.062206432 0.0683486 0.024284814 -0.007468987 0.006597948
0.033978917 0.107731305 0.07337818 -0.022965325 0.06251611 -0.10326829 -0.057776857 -0.2179955
0.031664312 0.17014721 -0.03823093 -0.13505964 -0.006905139 0.05949133 -0.09529432 -0.054952193
00000000: 1caf 74bd 6992 d93d 34b3 1dbd 03d2 b3bc
00000010: d488 aa3d 0307 833d 0d33 a6bc a3a0 1dba
00000020: bc7f 453d 54b9 6c3c 9716 86bd 0b86 913d
00000030: c338 653d c9c0 5ebd ec02 04bd aa22 5e3c
00000040: c5fb 913b 69ba af3d d1b8 f5bc c891 4a3d
00000050: b0fd 6d3d 933c a73d 85a9 2fbd 9595 8abd
00000060: 09e9 9b3d 12d0 75bd 7437 a4bd 4d81 2f3d
00000070: 7e3a dcbd e405 85bc a064 003d c78e ef3c
00000080: 5653 bdbb 53c3 63bd d14a 883c ebc2 acbd
00000090: 2288 88bd bbc6 753d 4b7d d1bb 1361 9ebd
000000a0: 7c46 2dbd df0d 7abd 24bd 12bd 27fd 58bd
000000b0: 0ff6 c4bc bdd1 34bd 97b2 63bc 544e 5dbd
000000c0: 3d8d 743d 7ed0 0a3d a4e8 d53c 4019 953b
000000d0: 28da 5f3c 5517 5d3c 2f3b b03a e3dd 23bc
000000e0: 3625 1f3b ee31 d0bb 5bc2 82bd d411 48bc
000000f0: 310a c53d f70c b23d 2fa8 a9bc 33b9 c03d
00000100: 6c1b 043c e631 9cbd 2e9b c83d 15d4 cabd
00000110: c2c1 fdbc 9a63 b13d be09 973d f990 97bd
00000120: 79c1 8cbd f139 aebd 1658 b9bd 394e 5ebd
00000130: dca4 cfbd 1e34 1c3c 65fd ab3b dc3c 783d
00000140: 1cbe d0bd 907f 73bb c66e 86bd 22a0 4e3d
00000150: 30db 81bd d458 423d b6ae 6b3d 5ab5 533d
00000160: 84a9 c43c d7d5 9dbb 971b e33d 763f 073d
00000170: 3762 893c 2e60 e5b8 0afc 3ebd f873 3a3c
00000180: 4fc7 1e3d da7c 443c 62cb 843d 353d 50bc
00000190: db32 77bd 457d 2d3a 585c 0ebd f222 603d
000001a0: 0291 09bd 15d5 73bd 891a 4bbd 3cd1 37bd
000001b0: 5ab7 91bd dbfb 843c 9dbf 33bd f6bd be3c
000001c0: 1086 073d b322 4e3d a9e2 133d 1713 b7bd
000001d0: e74c 4e3d d6b8 e2bc 278e 033d 5944 87bd
000001e0: 4731 c5bd c59e 98bc 4969 ce3d 4d42 993d
000001f0: c5e2 9dbd fd5f 543d 9c46 86bd 1381 7fbd
00000200: 96d5 7cbd 49a7 043d 068d bd3d dc29 a3bd
00000210: 17de c13c 5daf 14bd b7c5 ccbd 427f e0bd
00000220: 48aa 7abb 3f15 c13d af7f 5a3d d6d2 9bbd
00000230: 4f9e ecba bc68 b6bd 8586 19be cf71 78bd
00000240: 9ab0 27bd f8ad 9bbd 0b75 48bd 191b fabc
00000250: 8d2d 0abe 6e58 1abc 4983 e33a 5026 4fbd
00000260: ecf5 10bc 1e7f 083d ea2a a7bb da75 69bd
00000270: d250 6bbc d289 353d 574c 8cbd 1f84 a2bd
00000280: 6376 383d f7d4 c03d d150 95bb e300 413d
00000290: 5f15 5abd 6d7d 233d 8717 67bd ce77 473d
000002a0: b00e d83d 8f06 9dbd 887e b6bd dfc1 57bd
000002b0: c083 383d aeec 703d bd12 483d ad5f 8f3d
000002c0: d46b 493c 4ffb 48bd 11b8 94bd 9d0a f73c
000002d0: e755 73bc 0f96 7b3d b893 c83c a057 67bd
000002e0: 44ff 813c 061f 163c 9ccd 31bd cc3f 103d
000002f0: bdfa ebbb 0fd4 92bc 99c6 8ebd b50c d83d
00000300: 9fb9 0d3d 2146 5bbd da90 9a3d 4108 5d3b
00000310: f0c0 18bd 654f 82bd 3237 233d f3bd 8cbd
00000320: ef61 11bd 9ebf 25bd 63fd f8bc 7abf debd
00000330: ada7 cf3d aaf7 cebb 3e3f a1bd c3b9 b2bd
00000340: f457 523c 10fc ab3d 9eef 9dbb 2f7c 843d
00000350: 89e3 ae3d 2d40 b73d 1861 16bd 2fef 21bd
00000360: b397 3fbc 74b4 663d 1921 e1bb 2938 8d3d
00000370: 1b49 bb3d c869 a53d 3cd3 93bd 6d5b 0b3e
00000380: eef1 0f3d 802a 143d 0e1c 133d 0db3 b63d
00000390: a0c2 1abd dc04 0a3d b476 ccbd f406 d43d
000003a0: 1a0f 25bd 1673 3ebc 62c4 a7bd 2ccc 7e3d
000003b0: 5afa 8b3d f2f0 c63c 67be f4bb 9933 d83b
000003c0: 7a2d 0b3d 3ba2 dc3d 4d47 963d c721 bcbc
000003d0: 7208 803d 537e d3bd 6da7 6cbd 363a 5fbe
000003e0: 70b2 013d 123b 2e3e 0998 1cbd 134d 0abe
000003f0: 8144 e2bb 2ead 733d ab29 c3bd 8d15 61bd

bias f4 [84]
-0.038311195 0.02784614 0.49664187 0.09531967 0.11776682 0.16281566 0.01697892 0.056140203
-0.014679256 -0.17212884 0.031478174 -0.0548003 -0.065918446 0.013742929 0.22630665 -0.0078315465
-0.023424685 0.036862817 -0.022989545 0.10892644 -0.08772429 0.013724136 -0.113296635 0.23910223
0.2617908 -0.13088779 0.06374247 0.08188806 0.14389968 0.043889932 -0.04620465 -0.01653606
0.09498489 0.07790151 0.23454002 0.0121004395 0.24057308 -0.014617682 -0.03221042 0.08995267
0.06388402 -0.08449858 -0.07308348 0.037418067 0.08289369 0.04225254 0.20581207 0.37492305
-0.033649113 0.16082191 0.23989034 0.26616517 0.22954756 0.20641087 -0.071374185 0.046588544
0.10849895 -0.10053349 0.7592584 0.18127877 -0.13029686 -0.02020427 0.06743165 0.28672236
0.002021798 0.014933234 0.27491295 0.15688889 -0.10757697 -0.044765066 0.0620388 -0.018731438
0.096702 -0.08058355 -0.06357987 0.04836323 0.033212926 0.080495015 0.08151126 -0.04433793
-0.10760922 0.13904656 0.08513096 -0.047917213
00000000: 33ec 1cbd 971d e43c d847 fe3e f636 c33d
00000010: bb2f f13d 26b9 263e 6017 8b3c 45f3 653d
00000020: 4381 70bc 8b42 30be 42ef 003d 4876 60bd
00000030: 4000 87bd 062a 613c eebc 673e e34f 00bc
00000040: 20e5 bfbc 77fd 163d 9254 bcbc d314 df3d
00000050: cba8 b3bd 33db 603c 1108 e8bd 37d7 743e
00000060: 7209 863e 7307 06be 6a8b 823d edb4 a73d
00000070: 705a 133e eec5 333d 1641 3dbd a276 87bc
00000080: 7087 c23d d48a 9f3d 422b 703e ec40 463c
00000090: ca58 763e 017f 6fbc 13ef 03bd 1b39 b83d
000000a0: a0d5 823d 970d adbd cbac 95bd b043 193d
000000b0: 2bc4 a93d 0011 2d3d 66c0 523e eaf5 bf3e
000000c0: a7d3 09bd 80ae 243e d0a5 753e cd46 883e
000000d0: 840e 6b3e 5f5d 533e a12c 92bd a1d3 3e3d
000000e0: b334 de3d 81e4 cdbd c25e 423f 24a1 393e
000000f0: 8a6c 05be 6d83 a5bc 9b19 8a3d 46cd 923e
00000100: 2480 043b 86aa 743c 64c1 8c3e 7ba7 203e
00000110: 5051 dcbd 935b 37bd 661c 7e3d ac72 99bc
00000120: b30b c63d fd08 a5bd 2a36 82bd 8618 463d
00000130: 470a 083d 92da a43d 60ef a63d b09b 35bd
00000140: 3962 dcbd 3962 0e3e 2459 ae3d d744 44bd

weight f4 [10, 84]
-0.057762355 0.0146988155 -0.0883218 -0.015161553 -0.02798913 0.21371216 0.10615088 0.0920952
0.052041307 0.07341679 0.028390575 0.044326425 0.025364364 0.24371435 -0.083568476 0.064163804
0.062381916 -0.05090742 -0.039657447 -0.028235333 -0.1510953 0.118032515 0.053335156 -0.06769033
-0.084733576 0.1475876 0.17913938 0.008550925 0.117343895 0.11566239 0.051276658 -0.03111762
0.06278832 0.0024323098 -0.01859893 0.25739196 -0.15636636 -0.14975291 0.063623376 -0.17812788
0.062564194 -0.086807474 -0.052864544 0.08366607 0.26867124 -0.08974629 0.15035574 0.040234525
-0.087882034 0.04168361 -0.08470682 -0.075503774 0.30133086 0.18334247 -0.023024838 0.10341111
-0.13550757 0.0109504005 -0.35034397 0.34756863 -0.11966282 0.034034975 0.069192134 0.019900532
-0.10196842 -0.0678765 0.24912967 -0.21370305 0.13334396 -0.16593143 0.21429926 -0.019813772
-0.19201352 -0.114638425 0.04952312 -0.23854105 0.20601656 0.002197751 0.07387522 0.0466851
0.03065451 0.22676963 0.28570265 -0.06332703 -0.086951815 -0.09332313 -0.3270976 -0.04118004
0.061323848 0.026199335 -0.048456058 -0.026351983 -0.0531385 0.22510982 0.02991819 -0.025245648
-0.035184596 0.06536753 -0.24577042 0.12033059 -0.008171851 0.19185944 0.05694084 -0.2680489
0.080054924 0.016744649 -0.19056176 0.012928245 -0.07925163 0.17875879 0.15755871 0.1782278
-0.15487202 0.09563442 0.056498505 -0.09717916 0.16195005 -0.10325481 -0.11062081 -0.0002950723
-0.2600092 0.08495853 0.16835465 0.36869246 0.094464906 0.04666694 -0.0077969385 0.16381349
-0.12277562 -0.14255634 -0.24881032 -0.23987557 0.08939745 0.20557539 0.049552176 -0.11696286
-0.06808752 -0.22091834 -0.019008273 -0.006511008 -0.09158233 0.09000532 -0.2996358 0.17053229
-0.087738834 0.010549634 -0.04591125 -0.3007013 -0.020284709 -0.11168013 -0.035444897 -0.079678535
0.14611359 0.35343304 -0.2532196 0.18811163 -0.08040894 0.1331757 0.13209939 -0.24345168
0.027201515 0.02048867 0.26944593 -0.028203903 -0.006799515 0.3127039 0.165154 -0.09677044
0.10340532 0.23878603 -0.043699756 0.104308136 -0.14554584 -0.012552897 0.15535472 -0.028459536
-0.11230568 -0.06760651 -0.07075614 0.06928619 0.05432239 -0.13654363 0.15648146 -0.09674154
-0.017936032 -0.0804883 -0.075099654 0.2228173 0.10442598 0.11691744 -0.1748356 0.0063036
0.014584683 0.24696256 -0.10493654 -0.028335014 0.28777635 -0.17832457 -0.10890314 0.15601024
-0.17132074 -0.14902793 -0.22865954 0.016110111 0.038459342 0.09015804 0.12319259 -0.13163833
0.019852553 0.08253536 -0.0635348 -0.17939523 0.01557967 -0.061946653 0.16447951 0.03068899
0.06885746 -0.013504836 -0.0020218422 -0.009580302 0.03588286 0.21312764 0.0596298 0.07502212
-0.07323607 -0.041537162 0.3447828 0.14407152 -0.036496975 -0.087343186 -0.03442734 0.32440633
-0.12702796 -0.11338879 0.03314247 0.0031579067 -0.09102992 -0.042725187 0.063789494 0.018251555
0.21113841 -0.12229047 0.12231176 0.037842665 0.18420798 -0.04943729 -0.06862374 -0.08880513
-0.022693057 0.058446433 -0.037091088 0.046223745 0.08137986 -0.17055969 0.16029371 -0.005310511
00000000: 3898 6cbd 4dd3 703c 0fe2 b4bd 2a68 78bc
00000010: 7649 e5bc 5cd7 5a3e a265 d93d 699c bc3d
00000020: 4429 553d 8b5b 963d 5a93 e83c a08f 353d
00000030: edc8 cf3c 4190 793e f325 abbd 5068 833d
00000040: 2e84 7f3d 4d84 50bd d96f 22bd c94d e7bc
00000050: bab8 1abe 08bb f13d f775 5a3d 3aa1 8abd
00000060: cc88 adbd 3421 173e 5070 373e 2e19 0c3c
00000070: ff51 f03d 67e0 ec3d 7907 523d 61ea febc
00000080: 2a97 803d 6367 1f3b c95c 98bc e1c8 833e
00000090: 811e 20be d458 19be f94c 823d 2867 36be
000000a0: a821 803d 1ec8 b1bd 7e88 58bd 1e59 ab3d
000000b0: 478f 893e e7cc b7bd dbf6 193e f5cc 243d
000000c0: 7ffb b3bd 6fbc 2a3d c57a adbd b9a1 9abd
000000d0: 0a48 9a3e 21be 3b3e 969e bcbc 34c9 d33d
000000e0: 7fc2 0abe 4f69 333c 4960 b3be 84f4 b13e
000000f0: c811 f5bd 4268 0b3d 9bb4 8d3d 7106 a33c
00000100: d2d4 d0bd d602 8bbd d91b 7f3e f9d4 5abe
00000110: 528b 083e eee9 29be 4471 5b3e 7e50 a2bc
00000120: 319f 44be 8dc7 eabd c1d8 4a3d 1b44 74be
00000130: 01f6 523e 2508 103b e44b 973d e038 3f3d
00000140: 2b1f fb3c 4c36 683e 9e47 923e 9ab1 81bd
00000150: cb13 b2bd 3220 bfbd 5679 a7be 67ac 28bd
00000160: b72e 7b3d fd9f d63c dc79 46bd 1de0 d7bc
00000170: c1a7 59bd 3083 663e fe16 f53c f6cf cebc
00000180: b91d 10bd 69df 853d 3eab 7bbe e26f f63d
00000190: 3ae3 05bc cd76 443e cc3a 693d b53d 89be
000001a0: d6f3 a33d 132c 893c 9f22 43be fdd0 533c
000001b0: ae4e a2bd 8b0c 373e 1257 213e 5981 363e
000001c0: c596 1ebe fbdb c33d fa6a 673d de05 c7bd
000001d0: 3cd6 253e 4277 d3bd 2a8d e2bd efb3 9ab9
000001e0: ed1f 85be bdfe ad3d 2965 2c3e 42c5 bc3e
000001f0: d176 c13d d525 3f3d 767d ffbb b9be 273e
00000200: c971 fbbd 4afa 11be 22c8 7ebe f1a1 75be
00000210: 0316 b73d 5b82 523e 39f7 4a3d 398a efbd
00000220: 7871 8bbd 6b38 62be 3db7 9bbc 4b5a d5bb
00000230: 848f bbbd b654 b83d dd69 99be 04a0 2e3e
00000240: 6bb0 b3bd 5fd8 2c3c 6f0d 3cbd 85f5 99be
00000250: 1e2c a6bc 8db8 e4bd ab2e 11bd 802e a3bd
00000260: cd9e 153e 2df5 b43e 00a6 81be 56a0 403e
00000270: 71ad a4bd 365f 083e 1045 073e 664b 79be
00000280: b6d5 de3c dbd7 a73c d1f4 893e df0b e7bc
00000290: 77ce debb ba1a a03e 211e 293e 952f c6bd
000002a0: 2bc6 d33d 5384 743e 84fe 32bd 819f d53d
000002b0: f809 15be abaa 4dbc 4f15 1f3e f923 e9bc
000002c0: 8500 e6bd 4875 8abd 98e8 90bd ebe5 8d3d
000002d0: 2881 5e3d 18d2 0bbe ad3c 203e 6e20 c6bd
000002e0: 96ee 92bc 0dd7 a4bd d9cd 99bd 382a 643e
000002f0: 4add d53d 6972 ef3d 1b08 33be 6e8e ce3b
00000300: 98f4 6e3c c1e3 7c3e f8e8 d6bd d51e e8bc
00000310: 6c57 933e b79a 36be 9c08 dfbd 26c1 1f3e
00000320: b46e 2fbe c79a 18be ba25 6abe 5af9 833c
00000330: 8b87 1d3d c7a4 b83d 664c fc3d 33cc 06be
00000340: d2a1 a23c 4c08 a93d 891e 82bd 62b3 37be
00000350: df41 7f3c c6bb 7dbd 516d 283e 7a67 fb3c
00000360: 2405 8d3d 6343 5dbc e280 04bb b3f6 1cbc
00000370: e8f9 123d 223e 5a3e 613e 743d 32a5 993d
00000380: cbfc 95bd df22 2abd 5f87 b03e 7c87 133e
00000390: da7d 15bd fce0 b2bd af03 0dbd 9618 a63e
000003a0: 9e13 02be 6238 e8bd 66c0 073d e2f4 4e3b
000003b0: e56d babd 9b00 2fbd 11a4 823d 4984 953c
000003c0: ab34 583e 6d73 fabd 977e fa3d e900 1b3d
000003d0: 04a1 3c3e c17e 4abd 9a8a 8cbd 77df b5bd
000003e0: cae6 b9bc 8765 6f3d d3ec 17bd 1c55 3d3d
000003f0: 7caa a63d 33a7 2ebe 0924 243e cc03 aebb

bias f4 [10]
-0.31914994 -0.4135606 0.016400427 0.32706466 0.6002366 -0.1943467 0.48470557 -0.35082936
0.15030305 -0.41558325
00000000: 9f67 a3be 37be d3be 305a 863c 0575 a73e
00000010: 1ba9 193f d202 47be 542b f83e e89f b3be
00000020: 0be9 193e 54c7 d4be
