storage/1602148419_model.pt (torch_old, 264427 bytes, 10 tensors)

weight f4 [6, 3, 5, 5]
00000000: d0e0 44be 9efc cbbd 0c2a 9a3d 3aa2 ac3d
00000010: 41a6 1c3e 8a1a f8bc 88d8 193e 264f fd3e
00000020: 5a26 ce3e ab6d a03e a902 ff3d eb75 b23e
00000030: f0b8 113f 401a d53e 9916 323e 2b32 0fbc
00000040: c005 533e aa82 843e 316b 9f3d c99d 5dbd
00000050: c865 5d3c 1806 cfbd 9558 cdbe e136 00bf
00000060: 139e babe 7dad 1dbe 825a 15be 03e6 aa3d
00000070: e855 c1bd fd73 45be a8a1 c0bd 5668 55be
00000080: 8e61 4e3d ed43 743d 4a4c adbc 94b0 4f3d
00000090: f09d 2fbd 25d1 693e 9953 b1bd 4f3d 1bbe
000000a0: 68a6 cdbd 0648 9cbe 7a88 b1bd 5c6d a2be
000000b0: 0e93 e0be 53e0 3dbe 72a1 9abe d225 d9be
000000c0: 89a3 11bf 1a04 b6be 26bb 87bd 6096 3cbe
000000d0: 09a5 c2bc 26b2 06be b577 0e3d 64f3 0a3d
000000e0: 27fd a1b9 bc4f 7c3c 47f9 29bd 4f0e 2b3d
000000f0: 9108 683e 2482 fa3d bd9f 4c3e ea38 bfbc
00000100: d736 4abc d422 a73d 14a1 5fbd 64b9 1a3e
00000110: bf6d a0bd 0d76 c83d 0dbb 833e e2c5 e7bd
00000120: 5eb8 52bd 6875 7abc 6ec2 883e 09cf 6e3c
00000130: 4ffa 3dbd f8e5 35bd 287c 2fbe 6849 d8bd
00000140: 5acf 88bd 5665 e83d ef35 803d 39af edbd
00000150: 3b62 f0bc 5a4f 89bd fb9a 983d 0632 f236
00000160: f809 533c 0a39 f6bd b87e e8bd cbe8 cfbd
00000170: 8bc2 17bd 9408 273d 3021 24be 09a3 c9bc
00000180: fe47 ddbd 4daa e7bd cc23 05bc 64af 913d
00000190: 7cc4 9dbd 9eb6 323d 8ff9 42bd 8e24 64be
000001a0: 27ae b5bd 3adc 743d 476e 71bd bcb2 09be
000001b0: 3531 0cbe 0f74 23be 0793 a93d fd6e 6dbd
000001c0: bec3 5dbc 3c43 ff3c 9d63 5bbe a7d2 9dbb
000001d0: 4d0f 033e 6675 c03d 5d32 a0bd 1efd 0abd
000001e0: eb1f 14bd baa2 ac3d 58ba 81bd 6782 223c
000001f0: caa1 68bd 87e2 673e 32e4 183e dae2 963d
00000200: cbfc da3b 5062 32be 7f41 193e 4a48 9c3e
00000210: e643 173e 136b d33d cd73 37be 2df6 003e
00000220: 455c a83e 7590 893e efd6 df3c afd4 79bd
00000230: b05e 393e 631f 9a3e cab9 443e 30a7 c43d
00000240: 3b04 053e b6c8 0a3e fcd7 fc3d 44e1 993e
00000250: 5141 2f3e 87e6 383c 17c4 0fbe 8054 12be
00000260: 2df0 bc3e 5877 69bd 6524 78bd 9201 bebe
00000270: cd76 37bd acad 0e3f 520d 8a3d cacd f7be
00000280: 2050 4abe b50c 46bd ca1a aa3e f79b e63c
00000290: ffb6 abbe d19a 4d3e 215b 11be 3bcf 37bd
000002a0: 2868 df3d a0ed 16bd 099c 5f3e c51f c9bd
000002b0: 8852 81be b29a e23d 28ef 30be bf86 1ebe
000002c0: c51d 213e 47ab 0c3f 0b93 483e 211a a8bd
000002d0: d7b4 83be dc45 103e 5202 313f 8dac 543e
000002e0: cacc f7be 763a 0cbe bb04 803e 7968 033f
000002f0: d56a 303e 3578 93be b3ba 843e b341 563e
00000300: e2b4 19bc eecd 943e 2e10 1dbe 9006 b53e
00000310: f847 163e b741 53bd 6e2c ac3e bbae 1abd
00000320: ad9b 37be 2586 50be a3a9 a33e 6141 c2bd
00000330: 533b a8be 3c76 b6be a20a 06be 11cb c03e
00000340: f758 af3d 79b7 11bf 17f1 acbe 443a be3c
00000350: 60e9 613e 7976 debc 2299 93be 3230 163d
00000360: 93e3 b6bd aeb2 71bd 2bb4 343d 7660 b8bd
00000370: 2175 d2bc 304d 13be 5c55 c7bd 16dd df3d
00000380: 0578 81be 86f0 0f3d a8fa 773d 8e31 263e
00000390: b7bd 853e 742c 233e 1db2 87be 3581 d3be
000003a0: 247e bdbe 2a56 d7be f258 b6be 0d01 3cbe
000003b0: d3d3 82be 43d8 f2be 244e babe 6b71 2ebe
000003c0: 4d29 cf3d 3baa a13e ea23 c93e 98df 4a3e
000003d0: 35bc 783d 4881 6f3e 8794 8c3e f947 a23e
000003e0: ac4b 8d3e 7e8e 313e 56c5 5d3e 8593 8a3e
000003f0: 2000 953e aac0 383e 8fd7 883d 7fcf ffbc
-0.19226384 -0.09960292 0.07527551 0.0842938 0.15297796 -0.030286092 0.15024006 0.49474448
0.40263635 0.3133367 0.12451679 0.3485559 0.5692282 0.4162159 0.17391433 -0.008739988
0.20607662 0.2588094 0.07784117 -0.054105554 0.013513036 -0.10108584 -0.40106645 -0.5008374
-0.36448726 -0.15398212 -0.14585307 0.083446525 -0.094402134 -0.19282527 -0.094058335 -0.20840582
0.050386004 0.05963509 -0.021154542 0.050705507 -0.04287523 0.22833689 -0.08658523 -0.15160106
-0.10041505 -0.305237 -0.08668609 -0.3172406 -0.43862194 -0.18542604 -0.30201298 -0.42411667
-0.5689016 -0.35550004 -0.066274926 -0.18416739 -0.023760336 -0.13153896 0.03478213 0.03392352
-0.00030896926 0.0153998695 -0.041497495 0.041761693 0.22659518 0.122318536 0.1998281 -0.023342568
-0.012342176 0.0816094 -0.054596975 0.15109783 -0.078334324 0.097881414 0.25728646 -0.1131704
-0.051445358 -0.015286781 0.26710838 0.014575728 -0.04638129 -0.04440877 -0.17137206 -0.10560876
-0.06680174 0.11347453 0.06260287 -0.11605687 -0.029343715 -0.06704588 0.07451435 7.2179855e-06
0.012880795 -0.12022598 -0.11352295 -0.101518236 -0.037050765 0.040779665 -0.16028285 -0.024613874
-0.10804747 -0.11311779 -0.00812621 0.07113531 -0.07703492 0.04363119 -0.04760128 -0.2227957
-0.088711075 0.059780337 -0.05894306 -0.13447088 -0.13690646 -0.15962242 0.08279996 -0.057967175
-0.013535438 0.03115999 -0.21424718 -0.0048163715 0.12798806 0.09397392 -0.07822106 -0.033932798
-0.03616325 0.08429475 -0.063343704 0.009918786 -0.05679492 0.22645007 0.149308 0.07367487
0.0066829673 -0.17420316 0.14966391 0.30523902 0.14771995 0.10323157 -0.17915268 0.12593909
0.32882896 0.26868024 0.027324168 -0.060993847 0.18102527 0.3010207 0.19211498 0.09602201
0.12989895 0.13553128 0.12345883 0.30054677 0.1711476 0.011285431 -0.14039646 -0.14290047
0.3690199 -0.05699858 -0.060581584 -0.37110573 -0.04479103 0.5573375 0.06740822 -0.48399192
-0.19757128 -0.048351962 0.33223563 0.028150542 -0.33538052 0.20078589 -0.14194919 -0.044875365
0.10908538 -0.03684771 0.21836866 -0.09820513 -0.2525828 0.11064662 -0.17278731 -0.15481089
0.15734012 0.5494885 0.19587342 -0.08208109 -0.25723907 0.14089149 0.69144166 0.20768948
-0.4839843 -0.13694176 0.2500361 0.5133129 0.17228253 -0.28802648 0.2592369 0.209235
-0.009381505 0.29063362 -0.15338203 0.3535657 0.14675891 -0.051576342 0.33627647 -0.037764292
-0.1793048 -0.20363672 0.3196536 -0.09485126 -0.3285776 -0.3563708 -0.13089994 0.37654927
0.085618906 -0.5692058 -0.33777687 0.023221143 0.22061682 -0.027156102 -0.2882777 0.036667056
-0.08930125 -0.059008293 0.044117134 -0.090027735 -0.025690617 -0.14384913 -0.09733078 0.10930841
-0.2528688 0.03514149 0.06054178 0.16229841 0.26121303 0.15934926 -0.26503077 -0.41309515
-0.370103 -0.42057925 -0.35614735 -0.18359776 -0.25552234 -0.4743062 -0.36387742 -0.17035453
0.101152994 0.31575188 0.39285213 0.19811857 0.060726363 0.2338916 0.27457067 0.31695536
0.27596796 0.17339513 0.21657309 0.27065673 0.29101658 0.18042246 0.066817395 -0.031226872

bias f4 [6]
00000000: 335e f0be 8bcc b13d 9fd0 653d 2de6 51be
00000010: 6100 d23e 12d2 1d3f
-0.46946868 0.086815916 0.05610716 -0.20497961 0.41015914 0.61648667

weight f4 [16, 6, 5, 5]
00000000: 0aff 72bc 859a 863c 2818 943d d4c5 6cbd
00000010: 9a4a 9ebc 2352 b63d 8c8b 9dbc 49f4 94bb
00000020: dc99 c33d 8e2f ae3d 5c02 aebc 3e7d 2d3c
00000030: 8f6f c23b 35e4 0ebd 9975 363d 6dda 903b
00000040: f88e a03b 9265 96bc c3b6 3a3c e3e8 143d
00000050: 656c 25be 20be e0bd 5053 01be 3e3d 4e3c
00000060: a43a dbbd da93 5c3b 42d8 a63b 9de8 573c
00000070: 2a7e 15bd cf90 3cbc 5916 473d bcf0 cd3d
00000080: d832 0fbd 29b9 f43c e7fb eb3d 4077 febc
00000090: 2a49 fa3d a10a 53bd 7704 60bc f982 e43d
000000a0: 9ce0 72bd 2147 f93d 636b 733c b7d2 e43c
000000b0: 6eeb fb3b 34ca 273d 850c 0a3e 0255 213c
000000c0: 8c6a 253d 6705 8b3d f933 e3bd 38bd 69bc
000000d0: 5809 1bbe 0529 40bb 7f8e bdbd 4f79 7f3a
000000e0: c1bc 733e a7c3 9bbd 6000 3b3e 42f8 5ebd
000000f0: 3612 aebd 40a9 4a3e a6a4 32be 9924 8f3e
00000100: 1da1 56bb d3c4 5cbd 0f3d 833e 4ec8 0dbe
00000110: bd01 693e e157 6ebd 3152 e23c a123 233e
00000120: e8a0 04be d0a5 6c3e 6447 973c 3f79 e83c
00000130: e99c b43d f204 ad3c c5d2 493d 426e 713c
00000140: 9330 1abd 3f6c 6fbd 738f 37be 69a3 98bc
00000150: bffd 74bb 77b3 553d b9e0 99bc f307 4ebd
00000160: f024 d4bc fe6e 6cbd baee 46bc 6824 18bd
00000170: 20d4 9e3c 9c11 74bd 61d9 5b3d 90ab 873c
00000180: 9e3e 85bd a39d 6abc f2a2 a93b 7ce9 ccbc
00000190: 429b d8bd b752 0d3d 4f0a 57bd a40c 78bd
000001a0: c78c eebc 024c c53c 59ed 8cbd 1a78 bcbd
000001b0: 3bfe 623c bb5b adbd dc7f 873c 44d9 573d
000001c0: e02e 32bd 7877 ba3c 0b07 8dbc 1546 bebd
000001d0: 0ac0 f43c bf9a 29bd 714f 863d 1ef9 36bd
000001e0: 1281 a9bd 170a 2b3d c920 f7bd 17da c2bc
000001f0: fc0a 2ebd a4d6 a4bd 9442 4b3d a8e2 a7bd
00000200: 1456 953d e6e3 ab3d ebb6 103d 59bd dbbc
00000210: 0607 c93d b1bb 84bc dbe1 9c3c 4896 37bd
00000220: a386 8a3c a39a 283d eb9f 153c 9d30 1ebc
00000230: f582 86bd aea9 d1ba 0c88 023c 2fbc ce3d
00000240: bc85 b7bc deb4 f2bc fd9c 3abc c576 1dbd
00000250: 2f7f 553d 90ea 683d 7841 1dbd 65d4 953c
00000260: 7d0f bdbd 61c5 843c 0376 c03c c28f 833d
00000270: c15d 413b 1ba6 e43c b663 dc3d 7cfd 283e
00000280: 0780 a33d c7ae c43d 590e d93d 96a6 c33d
00000290: 525f 173e 9486 023e 1670 f43d ea8e c53c
000002a0: ee35 153e 5508 613d dae4 2d3d 26df bd3c
000002b0: ce90 933d ef57 2a3d 3cbf db3c 6948 acbc
000002c0: fd46 80bd a0a7 86bd 8ef4 77bd 9718 c33d
000002d0: 4399 203d 93cc babd b556 16bd 8785 d63c
000002e0: c47f 39bd 98fe 22bd 78c8 10bb 9a97 5bbb
000002f0: 8d2c bfbd 602b 3d3d 3621 00bd 0432 a23a
00000300: b4cb e5bd 31ed 123c 029b 11bd e214 6dba
00000310: da27 2b3d 1315 84bd 2175 4a3d 19e1 9cbd
00000320: 24df d3bd 0002 c23c e49b 63bc 2c37 9dbd
00000330: e9a2 85bd 62ca 5bbe 725c 7cbe e093 3cbe
00000340: e54f b2bd 8a68 01be 7284 84be 274b 91be
00000350: f9d6 99be 50b8 80be 8a11 10be 9743 42be
00000360: f87f 7fbe 5bb3 7dbe 17ad 13be a1b0 b9bd
00000370: 4224 65bd ac7d e7ba 7a8e 133d 65f3 5abd
00000380: b9a3 9c3c a198 ea3d a240 113e 78f5 e63d
00000390: 6566 483d b1c0 a33d 4adb ec3d 679f 983d
000003a0: 9cd6 f53d 9ea6 a63d 8238 ae3d 8cb6 1e3c
000003b0: 8685 143d 5647 0e3d d4c5 98bd bfae 293d
000003c0: 2c35 4abd 6138 f3bd fead 92bd 0cc1 d3bd
000003d0: 0f97 babc 75eb 3d3d e4b5 1f3d baa1 06bd
000003e0: 4650 93ba dd22 033d adc9 c2bc bb3f a9bd
000003f0: 91a6 8638 840c 153d 02c5 823d c553 823d
-0.014831314 0.016431103 0.0723117 -0.05780585 -0.019322682 0.08902385 -0.01923158 -0.0045457226
0.09550831 0.08505164 -0.02124136 0.010588942 0.005933709 -0.034885604 0.044545744 0.0044205696
0.0048998557 -0.01835898 0.011396113 0.03635491 -0.1615463 -0.109737635 -0.12629437 0.012587843
-0.10704544 0.0033657462 0.005091698 0.013178018 -0.036497273 -0.011509134 0.048605297 0.10055682
-0.034960598 0.029873447 0.11522656 -0.031062722 0.12220986 -0.05152381 -0.0136729395 0.111577936
-0.059296235 0.1217177 0.014857146 0.027932508 0.0076879775 0.04096432 0.13481338 0.009846928
0.040384814 0.0678814 -0.11093897 -0.014266305 -0.15140283 -0.0029321325 -0.092556946 0.00097455544
0.23802473 -0.07605677 0.18261862 -0.054435976 -0.08499567 0.19791126 -0.17445621 0.2795761
-0.003274984 -0.053898644 0.25632522 -0.13845941 0.2275457 -0.058189277 0.027627083 0.1593156
-0.12952006 0.23110127 0.018466659 0.028378127 0.08818991 0.021120522 0.04927327 0.01473576
-0.03764398 -0.05845284 -0.17925815 -0.018632608 -0.003738269 0.052173104 -0.018783914 -0.05030055
-0.02589652 -0.057723038 -0.012141878 -0.037144095 0.019388258 -0.059587106 0.053674106 0.0165613
-0.06506084 -0.01431981 0.0051768953 -0.025013678 -0.10576488 0.03450271 -0.052500065 -0.06055893
-0.029119862 0.024084095 -0.06881208 -0.09202595 0.013854559 -0.08464762 0.01654046 0.052697435
-0.043501735 0.022762045 -0.017215272 -0.09290711 0.029876728 -0.041407343 0.06558121 -0.04467117
-0.08276571 0.04175767 -0.120668 -0.023785634 -0.042490944 -0.08048752 0.04962404 -0.08197528
0.07291809 0.083930776 0.035330694 -0.026823686 0.09815793 -0.01620278 0.019150665 -0.044821054
0.016909903 0.041163098 0.009132366 -0.009655145 -0.06567947 -0.0015996003 0.007967006 0.10094487
-0.022402637 -0.02962726 -0.011389968 -0.038443346 0.052123245 0.05686432 -0.038392514 0.018289754
-0.0923147 0.016207399 0.023493772 0.06423904 0.0029505345 0.027911237 0.10761206 0.16502947
0.07983404 0.09603649 0.1059844 0.09553258 0.14782456 0.1274665 0.11935441 0.024115998
0.14571354 0.054939587 0.042454578 0.023177695 0.07205354 0.041587766 0.026824586 -0.021030622
-0.0626354 -0.06574941 -0.06053596 0.095261745 0.03920866 -0.09121051 -0.036703784 0.026186718
-0.045287862 -0.03979358 -0.0022092145 -0.003350711 -0.09334669 0.046183944 -0.031281672 0.0012374525
-0.11220494 0.008967684 -0.035548218 -0.00090439443 0.041786052 -0.06449332 0.04942811 -0.076601215
-0.10345295 0.023682594 -0.013892148 -0.07676539 -0.06525213 -0.21463922 -0.2464464 -0.18415785
-0.08706645 -0.12637535 -0.25882298 -0.2837765 -0.30046824 -0.2514062 -0.1406919 -0.18971096
-0.2495116 -0.2477545 -0.14421497 -0.090668924 -0.05594278 -0.0017661355 0.036024548 -0.053454775
0.019121038 0.11454893 0.14184812 0.11277288 0.048925776 0.07995737 0.115652636 0.074522786
0.12003824 0.081372485 0.08506872 0.009687077 0.03626015 0.034736 -0.07459608 0.041426416
-0.049367115 -0.11875988 -0.071620926 -0.10339555 -0.022777108 0.046367127 0.038991824 -0.03286908
-0.0011239133 0.03201567 -0.023777807 -0.08264109 6.420643e-05 0.03638889 0.063852325 0.06363634

bias f4 [16]
00000000: 3212 32be 14ec ddbd dc0c c23e f791 b93c
00000010: 2e7a ec3d c9a4 01bf 621d 5dbe ce4b 3e3e
00000020: 564a f5be 3bf6 983e a5a5 bbbe 1828 413f
00000030: 5150 ce3c 120f 8cbd 68d3 28be c2cb 643f
-0.17389753 -0.10836044 0.37900436 0.02265261 0.115467414 -0.5064207 -0.2159324 0.18583605
-0.47908276 0.2987536 -0.36649814 0.75451803 0.025184782 -0.06838812 -0.16486895 0.8937341

weight f4 [120, 400]
00000000: bc5a dfbc e074 003d 8ede 1a3b be10 0a3d
00000010: ca49 61bc 04e8 ba3a 9635 85bc b5e9 c43d
00000020: a05c 92bc 2415 4e3b 8e3e eb3c 4192 1e3c
00000030: 5887 8e3d ae6e b2bc cd50 db3b 199e cbbc
00000040: 87a0 a5bc d00b 80bb 773a debb 1986 e03b
00000050: 94a9 77bd a86e 8fbd ac6d 8a3b 311a 83bd
00000060: 6026 4d3c 5c19 e43c d037 03bd 76b7 183c
00000070: 770d 65bc d79a bebc f6ba 193c b225 c23b
00000080: c088 45bc 913d acbd 727a 75bd ae38 bf3b
00000090: 34c2 b0bc 1f50 7bbd 0d93 b2bc 1738 2f3d
000000a0: b46b 8e3c 56a1 51bd 1387 9e3c 2816 3f3d
000000b0: 5904 053d ab16 463b 7ed8 883d 378b 513d
000000c0: a79c abbc 9c2c 6abd a1f7 4a3d 87d1 ddbc
000000d0: 8771 14bc fd51 eb3b 838f 9e3d 9595 4a3d
000000e0: 6de2 a3bd 2b68 a3bd f305 2ebd b4cb 123d
000000f0: 95e6 32bd aa75 c4bb 4012 06bc 2b87 4cbd
00000100: 290b 323d 450a 46bd 51b2 9cbd 81cc 0dbc
00000110: 9385 23bd c5a5 a03c 7b49 43bb 0371 94bd
00000120: 61e5 8d3c 3f21 45bc 9c5a 023d 917d ae3c
00000130: ffda 8e3d e934 803d e5a6 ad3c 2c8c 5e3c
00000140: 3fe1 86bd abe4 11bd 2f85 2c3b 8a39 fdbc
00000150: 4e2b 52bc 72f0 c0bd fbe8 1a3d 76b4 113d
00000160: 50ac 993d a496 283c 17f9 04bb fc58 9e3c
00000170: 298f 8f3c 6b5a 843d b72e 5c3c 2501 8dbd
00000180: f814 0e3c 73b7 463d a9e8 c23c 9f57 ec3c
00000190: baea 42bd 63f4 4e3d abad e9bc 479a debc
000001a0: 8ec8 b6bd 0bf0 953b e94d a739 28c8 94bc
000001b0: d208 d9bc 1e80 9bbd ba94 5d3d e0f1 47bc
000001c0: d153 a0bc 1872 59bd a98d cb3a 763b 5bbc
000001d0: 4cac 4cbd e599 27bd 0aeb b6bc 279a 19bd
000001e0: da7d 99bd eddd 74bd 0458 2c3c 8f69 593c
000001f0: c4fa 9fbb daa8 cd3c 3496 b23c b586 b9ba
00000200: ec8b 213d 8760 b1bb 2233 903c 1bb2 103d
00000210: 10f0 b53c 7983 82bd fa7c e83c 7f06 0bbd
00000220: 8b96 cebc bcab 753d ee90 0ebc 802e 39bc
00000230: 065d 253c 2bc3 9cbb 010b 393c 77ab e3bc
00000240: dda5 edba e021 bd3c f3fc f9bb 0086 b53c
00000250: e200 b33b 9b88 d3bc e064 cc3d db06 b83c
00000260: 6884 98bd fc33 c9bc 19df 203d fc12 093d
00000270: ac7d dcbd f859 bcbd 2128 8fbd e540 773b
00000280: 5f3e f2bc e6a4 13bd b943 13bd c827 73bb
00000290: a3ec 823d 77a3 1a3d 6f6a 823d 36ae ab3d
000002a0: 60b6 c83d 1a1d 763d a111 a93c 8713 7e3c
000002b0: 85af 0cbd 4b1c 3c3c 1642 8d3d 5c4d 7f3d
000002c0: c9d4 233d a3d5 acbc ba6b 90bc 4e5e a3bc
000002d0: b4a9 41bc 6af2 0e3c d8aa 0a3c c361 c3bd
000002e0: 3b3b 2ebd 150e 283d fb2b 833b ffed 863b
000002f0: d48b e2bd e476 c9bd 62a6 0a3c 5b79 4dbb
00000300: 9c38 42bd 1fc9 cabd d74e c0bd 2df7 953d
00000310: 5b0f fcbb 195a 95bd 48b5 a6bd 0b84 46bd
00000320: 43ab 4d3d 1ebb 19bd eff1 37bd 22e1 a23d
00000330: 22a5 bb3b bd1e 7f3b cc61 eabb 9215 bd3c
00000340: 765b 52bc 25e4 e9bc 0ac7 083d 84f2 cd3c
00000350: 8ff2 633d 73a7 4a3c 9a36 a13c 32df 45bd
00000360: d608 3d3d eb95 1ebd 4439 20bd 97ec 453d
00000370: 6134 a3bc 4c62 a0bc 5672 aa3c 7638 44bd
00000380: 2611 5d3c 067c 923d d400 f5bb 4324 11bd
00000390: 5caf 0e3d 0bd0 a23d c948 12bd c514 8cbd
000003a0: bad0 debd 42c4 82bd a0c2 e9bc ff82 78bd
000003b0: ea79 94bd c159 b4bc bf34 f4bc 315e 80bd
000003c0: ef3e 2cbd b3aa 86bd 7e99 15bd e78b 6dbc
000003d0: 18af 06bd 11ec a23d 1f25 733d 9d44 423d
000003e0: 299b 873d 65da b03c fea8 ecbc 9dd6 433d
000003f0: 63d6 12bd 40a2 9a3d d8bf 7b3d 7261 773b
-0.027264945 0.03136146 0.0023631188 0.033707373 -0.013750503 0.001425982 -0.016260903 0.096148886
-0.017866433 0.0031445706 0.028716352 0.009678424 0.069594085 -0.021781292 0.006692982 -0.02485566
-0.020218147 -0.003907658 -0.006781872 0.006851923 -0.060464457 -0.07003528 0.0042244997 -0.0640148
0.012521356 0.027844124 -0.03203565 0.009321084 -0.013980261 -0.023267193 0.009382954 0.005924904
-0.0120565295 -0.0841018 -0.059931226 0.005835614 -0.021576978 -0.061355706 -0.021798635 0.0427781
0.017385341 -0.051179253 0.019351518 0.04665199 0.03247485 0.0030225914 0.066819176 0.051158156
-0.020948721 -0.05717145 0.049552564 -0.02707745 -0.00906027 0.0071814046 0.077422164 0.04945906
-0.08002172 -0.07978853 -0.042486142 0.035838798 -0.04367693 -0.005995472 -0.008183062 -0.049933594
0.043467674 -0.048349638 -0.07651199 -0.008654715 -0.03992231 0.019610295 -0.0029798436 -0.07248118
0.01732129 -0.012031852 0.031824693 0.02130011 0.06975364 0.06260092 0.021197746 0.013583224
-0.06585931 -0.035618465 0.00263245 -0.030911226 -0.012827707 -0.09420861 0.037819844 0.03557249
0.07503569 0.010289822 -0.002029007 0.01932954 0.017524319 0.06462558 0.013438872 -0.06884984
0.0086719915 0.048514795 0.023792582 0.028850375 -0.047587134 0.050526034 -0.028525194 -0.027173175
-0.089249715 0.0045757345 0.0003191077 -0.018161848 -0.026493464 -0.07592796 0.054096915 -0.012203664
-0.019571217 -0.053087324 0.0015529889 -0.013380876 -0.049969003 -0.04091825 -0.022328872 -0.037500527
-0.074947074 -0.059781957 0.010519031 0.013269796 -0.0048821885 0.025104929 0.021800138 -0.0014154526
0.03944008 -0.0054131183 0.017602507 0.035326105 0.022209197 -0.06372733 0.028379906 -0.033941742
-0.025218269 0.05997823 -0.008701546 -0.01130259 0.010092979 -0.004784008 0.011294127 -0.027791722
-0.0018131096 0.023087442 -0.007629031 0.022158623 0.0054627517 -0.025821975 0.09980178 0.022464206
-0.074471295 -0.02456092 0.039275263 0.03346537 -0.107661575 -0.09196848 -0.06990076 0.003772789
-0.029570756 -0.03604593 -0.035953257 -0.003710257 0.06392791 0.03775355 0.06367957 0.083828375
0.0980041 0.060086347 0.020638289 0.015507585 -0.034347076 0.011481355 0.068973705 0.062329635
0.03999785 -0.021097964 -0.017629493 -0.019942429 -0.0118202455 0.008724788 0.008463584 -0.09540131
-0.042536955 0.041029055 0.0040030456 0.004117727 -0.11061826 -0.0983713 0.00846252 -0.003135285
-0.04741727 -0.09901642 -0.093900375 0.07322536 -0.00769226 -0.072925754 -0.081400454 -0.04846577
0.050212156 -0.037531964 -0.04490846 0.07953097 0.0057264725 0.0038928234 -0.0071527716 0.023081575
-0.012839189 -0.02855117 0.033392943 0.025140055 0.055651244 0.012369025 0.019679356 -0.04830856
0.046151005 -0.03871719 -0.039117113 0.048321333 -0.019922437 -0.019578122 0.020806473 -0.047905408
0.013492858 0.07152562 -0.0074769054 -0.035434972 0.034835204 0.07949837 -0.035713945 -0.06839899
-0.10879655 -0.063850895 -0.028535187 -0.060671803 -0.07249816 -0.022015454 -0.029810308 -0.062679656
-0.042052206 -0.06575527 -0.036523335 -0.014498687 -0.032881826 0.07955182 0.059361573 0.047428716
0.06621391 0.021588514 -0.028889176 0.047812093 -0.035848986 0.07550478 0.061462253 0.003774729

bias f4 [120]
00000000: 0adb 923c b986 78bd 483c 7ebc 5094 a03d
00000010: cf77 b3bc 13ed 263d 8387 073c 4722 99bd
00000020: 3c60 8ebc 6c0f 2b3e d118 e83d bde3 abbc
00000030: a66d 963d 6b9e e73d 38f1 3d3d 7eb7 63bb
00000040: 3514 cd3d 097f 46bc 2e95 b03d dd1f 673e
00000050: e28f ae3d 682f fe3b 70c5 da3d 8faf 083d
00000060: 3409 07bd ec93 d53d e5a3 3b3d 1dc9 843d
00000070: ddbe ed3c f10c 8cbc 0913 42bd 6924 6cbb
00000080: 8b4a 76bc 9675 273c ad03 e33d 4fe4 8bbd
00000090: 2b74 b4bd d7d9 513a bc9a 7f3b 5587 813d
000000a0: cb2f c7bc 4461 38bd dcb5 493d 6390 71bb
000000b0: 1c1e cd3c 0c14 8a3c 6a6a 4cbd bb7a 903c
000000c0: 0045 0a3e 8d5f c33d 5db6 0c3e b93f 9bbb
000000d0: 6bc6 673e 1531 083e 89f3 71bd 4643 a03d
000000e0: 45b8 2e3e 2823 09bd 54f1 f93d 01f6 e43d
000000f0: 0a12 97bc 8aff 443e 88bf 68ba 038d afbc
00000100: 17fb 953d a0ba a53d e9a4 833c e947 bf3d
00000110: a2d8 ef3d ce62 3bbe dfdc 583d 11cc 693d
00000120: 1b48 0b3e eb93 22bb 9e1e ce3b eb35 233c
00000130: 243c 54bd ff19 413d 0616 453e 2ff8 883c
00000140: 0c0b 423e 6ee5 e1bc 934c c9bc d776 033d
00000150: feb1 753d a863 a93d ffdc 123b ded1 d3bc
00000160: 6bfc 153d f3ec 5ebd 9a0e adbd e8a7 933d
00000170: a89d 533b 3c32 a43e a05b cd3d 4e2c 22bd
00000180: 1095 f2bd c54b 16bc 6bc3 cdbd f171 38bd
00000190: 258b 6f3d 8e7d 04bd 264b a3bc c31f 38bd
000001a0: 30a1 ef3d 0f41 153e 49a8 3a3c 8339 353d
000001b0: e6a9 623d c72f 94bd 9f18 52be c645 8dbc
000001c0: a856 bebc 54ed d7bb ecff 0abd 3536 c13d
000001d0: 1d5a 5b3d 98b7 883b feac 713d d815 8c3c
0.017926712 -0.060675357 -0.015517302 0.07840788 -0.021907715 0.040753435 0.008272055 -0.07477241
-0.017379873 0.16705102 0.11332858 -0.020982618 0.073451325 0.11309513 0.046372622 -0.003474682
0.1001362 -0.0121152485 0.08622204 0.22570749 0.08523537 0.007757116 0.106821895 0.03337055
-0.03296776 0.104286045 0.0458106 0.06483672 0.029021675 -0.017096015 -0.047381435 -0.0036032444
-0.015032421 0.010220906 0.110846855 -0.06830656 -0.0881122 0.0008005178 0.003900214 0.06324641
-0.024314782 -0.045014635 0.0492457 -0.0036859743 0.025038771 0.016855262 -0.04990617 0.017636647
0.13502884 0.09539709 0.13741441 -0.004737821 0.22634284 0.13299973 -0.059070144 0.078253314
0.17062481 -0.033480793 0.12204233 0.11179734 -0.018441219 0.19238105 -0.0008878638 -0.021429544
0.07323282 0.080922365 0.016069846 0.09339888 0.11711241 -0.1829941 0.052945014 0.05707938
0.13601725 -0.0024807404 0.006290271 0.0099615855 -0.051815167 0.047143932 0.19246683 0.016719906
0.18949527 -0.02757522 -0.024572646 0.032095756 0.0599842 0.08270961 0.0022409556 -0.025856908
0.036617678 -0.05442519 -0.08450051 0.0720976 0.0032290015 0.32069576 0.10027242 -0.039593033
-0.11844838 -0.009173338 -0.10047039 -0.045030538 0.058482308 -0.0323463 -0.019933295 -0.044952165
0.11700666 0.14575599 0.011392661 0.0442443 0.05533781 -0.07235675 -0.20517205 -0.017245185
-0.02323468 -0.006589571 -0.033935472 0.09434167 0.053552736 0.0041722767 0.05900287 0.01710026

weight f4 [84, 120]
00000000: fab9 73bd 2240 db3d 5894 21bd 6273 b3bc
00000010: 7c5e aa3d 6b47 833d 946d 97bc 879c 64ba
00000020: e75a 453d 5d60 5b3c e69c 85bd b552 943d
00000030: f092 653d 1e73 52bd 692c 02bd 3a95 6d3c
00000040: f3ce 903b 9f9b b23d 91c3 f0bc 7704 443d
00000050: 519e 6e3d 7f52 ab3d 723c 34bd 1fc3 87bd
00000060: f494 9b3d b132 81bd 4e64 a2bd 1ea3 323d
00000070: 8398 d7bd ddca 92bc 36d0 ff3c 34a2 fc3c
00000080: a589 a6bb 4355 63bd 72c8 933c e5a6 aebd
00000090: 8f8e 87bd 7443 7b3d c0cf efbb aab3 9ebd
000000a0: 7046 2dbd 3d31 76bd fda4 13bd b816 57bd
000000b0: 22f9 c4bc 2cc6 34bd e6c9 66bc 5f35 55bd
000000c0: 0553 6c3d eea1 123d c48e d73c f4ab eb3b
000000d0: 136c 583c 818d 6e3c be8c e43a 9d5e 17bc
000000e0: 3ea9 6a3b ebec abbb 0860 81bd 271e 3bbc
000000f0: 67cc c33d bcdf af3d c5bd a5bc ad0f c13d
00000100: 3b06 1c3c ab83 9bbd 5f2f cd3d 5503 c8bd
00000110: bd23 01bd 7eac b03d 0b19 993d e6f3 97bd
00000120: 972d 8cbd 5f34 afbd d542 b6bd 7b43 56bd
00000130: e32a cebd 84fb 413c 84de 9f3b 827e 7a3d
00000140: a102 d2bd e400 65bb 4b71 85bd 4b0e 513d
00000150: b627 7ebd 5b10 423d 25d0 6d3d 185d 533d
00000160: f0d8 c53c 4aa1 6fbb 1e9c e53d ae8b 043d
00000170: d7b1 8a3c 2d4a b9ba e9c6 38bd 857d 563c
00000180: 5fbc 273d a693 4f3c 6185 833d 9e9e 39bc
00000190: 4f9c 74bd 3fe9 303b 3e69 0ebd bf07 5e3d
000001a0: 2398 05bd 6701 7abd 4fba 4abd 01eb 37bd
000001b0: 126d 98bd f8f4 853c 61eb 2fbd 7812 bc3c
000001c0: 76cf 093d 2ac6 543d 21e9 133d d8bc b5bd
000001d0: 502b 523d d2d1 c1bc ef3d 083d 9eef 83bd
000001e0: e7fd c5bd 2a9a 8bbc 7f73 d43d 2aee 973d
000001f0: 0423 9ebd 4c15 5d3d e9e8 83bd 9077 70bd
00000200: 6ea2 7cbd c8ff fe3c 7e07 be3d 30c1 a0bd
00000210: 0096 c23c 5518 1abd 43d3 cbbd f886 debd
00000220: 36fe 7dbb a776 bd3d 2d27 5b3d c6e5 8ebd
00000230: b742 00bb 29c2 b6bd a14c 19be 4fb0 7cbd
00000240: 10c6 28bd 1e17 a2bd 9607 4cbd 6d20 00bd
00000250: 5203 0abe c58e 2fbc 4a47 193b f7d1 4cbd
00000260: 9b07 11bc 3068 013d 9a00 fcbb 335d 69bd
00000270: e073 86bc d2e6 393d 12b8 8cbd d3a2 9fbd
00000280: 7574 383d db57 c53d 85a2 79bb 967d 453d
00000290: 791d 5abd ce7f 233d b76c 68bd 9b59 4c3d
000002a0: 409a d93d 274d 9dbd a338 babd 0c71 67bd
000002b0: df14 3b3d 4c3e 6a3d 0911 563d 4455 913d
000002c0: 28e3 633c 0a63 4ebd bb02 94bd f32d 063d
000002d0: c08c 4abc 1e48 793d cbf0 b93c 789d 67bd
000002e0: 75ef 733c 6b2b 513c c041 2dbd 0afd 243d
000002f0: 41e4 debb 7e39 91bc fefe 8fbd d59b d73d
00000300: 9d22 0d3d 3f8b 5abd 54df 9a3d d8e1 a83a
00000310: f7f3 15bd 1c13 81bd bb60 183d 0b1c 8ebd
00000320: f999 0cbd 9615 24bd c95e f5bc 259b dfbd
00000330: 9bb0 d43d 7ad1 02bc ec49 9dbd 50bf b3bd
00000340: ea28 613c 3dc6 a83d de3d 5cbb 0f73 873d
00000350: ffc2 ae3d faef bb3d a336 0cbd 4b67 27bd
00000360: 715e 50bc a194 613d dfc0 d2bb 0a4a 8d3d
00000370: ca8f c53d cb88 a73d c6d9 93bd 95ea 0d3e
00000380: 3086 013d c7e5 183d f936 133d e8df ba3d
00000390: ac9c 0bbd 6d76 0b3d 3e91 cbbd 3a23 cd3d
000003a0: 22e3 23bd f89a 4fbc f079 a8bd 4eb0 833d
000003b0: f2ff 8a3d aaa5 e73c abf0 eabb b1eb 8e3b
000003c0: 3b08 1e3d 6967 d63d 6661 963d 8007 abbc
000003d0: 2b1a 803d ada4 d3bd 8ade 65bd 5f54 62be
000003e0: c8b1 013d 02de 2f3e ecd5 1dbd 9af2 0abe
000003f0: 4ce6 dbbb 34d2 7b3d 8a46 c4bd ac01 5bbd
-0.059503533 0.10705592 -0.039448112 -0.021905605 0.08318803 0.06410106 -0.018484868 -0.0008720834
0.048182394 0.013389674 -0.065240666 0.072423376 0.056048334 -0.051379316 -0.031780634 0.01450091
0.0044192015 0.087210886 -0.029390128 0.04785582 0.05825645 0.08365344 -0.044002958 -0.06629013
0.0759677 -0.06308497 -0.07929288 0.043612592 -0.10527136 -0.017918998 0.031227212 0.030839063
-0.0050823265 -0.055501234 0.018039916 -0.08527926 -0.06618988 0.061343625 -0.007318467 -0.07749112
-0.042303503 -0.06010555 -0.036046017 -0.0525119 -0.024044577 -0.044134304 -0.014086222 -0.05205285
0.05769636 0.03579896 0.026313193 0.0071921293 0.013209361 0.014560104 0.0017436964 -0.009238866
0.0035806443 -0.0052467487 -0.06317145 -0.011420763 0.09560471 0.08587596 -0.02023209 0.09426818
0.00952297 -0.07593473 0.10018801 -0.097662605 -0.031528223 0.0862665 0.0747548 -0.07419567
-0.06844633 -0.08554911 -0.08899466 -0.05231045 -0.10066774 0.011839751 0.004878821 0.061155804
-0.10254408 -0.0034943158 -0.065157495 0.05103902 -0.06204959 0.04737888 0.05805983 0.051602453
0.024151295 -0.0036564642 0.112114176 0.03235977 0.016930504 -0.0014136486 -0.04511157 0.01309145
0.04095113 0.0126694795 0.064219244 -0.011329321 -0.05971938 0.0026994494 -0.034768336 0.054206606
-0.032615792 -0.061036494 -0.049494084 -0.04490185 -0.074426785 0.016352162 -0.042949084 0.022958025
0.033645116 0.051946796 0.036111 -0.0887391 0.051310837 -0.02365962 0.03326219 -0.06442188
-0.09667569 -0.017041285 0.10373592 0.07418473 -0.077215225 0.05397539 -0.064409085 -0.058707774
-0.061678343 0.031127825 0.09278773 -0.078493476 0.023753166 -0.03762086 -0.09952404 -0.10865587
-0.0038756258 0.09251147 0.053504158 -0.069774196 -0.0019571015 -0.08923752 -0.14970638 -0.06169158
-0.041204512 -0.079145655 -0.049811922 -0.031280924 -0.13477829 -0.010715191 0.002338844 -0.050004926
-0.008851911 0.0315935 -0.0076905014 -0.056973647 -0.016412675 0.045386143 -0.06871046 -0.07794728
0.045032937 0.09635898 -0.0038091254 0.04821547 -0.053250764 0.039916806 -0.056744304 0.049890142
0.10625124 -0.07680731 -0.09092834 -0.056504294 0.0456742 0.057188317 0.05226234 0.07096341
0.013909139 -0.05038742 -0.07227083 0.032758664 -0.012362659 0.060859792 0.022697827 -0.05654666
0.014888634 0.012766699 -0.042299032 0.04028038 -0.0068021123 -0.01772761 -0.07031058 0.105277695
0.034456838 -0.05335545 0.07562128 0.001288469 -0.036609616 -0.06302473 0.037201624 -0.069389425
-0.034326527 -0.04005965 -0.029952424 -0.10918263 0.10385247 -0.007984513 -0.07680115 -0.08776724
0.013742665 0.08240936 -0.0033606212 0.066137426 0.08533286 0.09176631 -0.034231793 -0.040869992
-0.012717829 0.055073384 -0.0064316834 0.068988875 0.09646566 0.08180388 -0.07219271 0.13859017
0.03162211 0.037328508 0.035941098 0.09124738 -0.03408496 0.034048487 -0.09939812 0.100164846
-0.040011533 -0.012671225 -0.08226383 0.06430112 0.06787099 0.028277237 -0.007169803 0.0043615927
0.038582068 0.10468943 0.07342796 -0.0208776 0.06254991 -0.10334144 -0.056120433 -0.22102498
0.031663686 0.17174533 -0.03853409 -0.13569108 -0.006710803 0.061479762 -0.09583767 -0.05346839

bias f4 [84]
00000000: d60f 1abd 2cbd eb3c 469d fe3e 7c57 c43d
00000010: 678d f13d 6419 263e c8fd 9a3c 2e3d 663d
00000020: 6ca2 85bc f442 32be 59f3 f63c 6f17 59bd
00000030: 4d4d 88bd 2d76 653c 045d 683e 166d fcbb
00000040: 550e c7bc 49be 1e3d 91b7 bbbc 6d37 e13d
00000050: 040a b1bd b421 8a3c b869 ebbd f228 743e
00000060: 9800 863e cd23 06be d6b6 813d bf87 a13d
00000070: 4b86 173e c4d6 383d b6af 38bd 151c 8bbc
00000080: a9d6 c83d f34c a03d a88a 713e d0b7 403c
00000090: b8f4 753e 6353 81bc a697 02bd 3eb4 b93d
000000a0: 5e38 843d 2288 acbd 61f4 95bd eb23 103d
000000b0: ad86 a73d 1ff7 283d 6130 533e 1dc1 bd3e
000000c0: 1360 08bd bf2b 253e f1fa 773e 2529 883e
000000d0: fbfd 6b3e 6ba4 543e 1f3e 90bd de60 3d3d
000000e0: 27f9 da3d e971 cfbd a5ee 413f 7fff 383e
000000f0: bc3d 06be 2c40 a5bc 318c 8a3d 9146 933e
00000100: 3416 be3a bafa 853c d030 8c3e ee7a 1e3e
00000110: 832a d6bd 4a00 3fbd b8be 833d 2f03 8fbc
00000120: 8bc3 c33d 31ef a3bd 73f3 7fbd 5a2c 483d
00000130: 7168 093d 61e7 9f3d f778 a53d f898 3bbd
00000140: d758 d7bd affe 0f3e 43cf b13d 06b0 45bd
-0.03761276 0.028776728 0.49729365 0.09586999 0.117945485 0.16220623 0.01891984 0.05621069
-0.0163128 -0.17408353 0.030145334 -0.053000864 -0.06655369 0.014005226 0.22691733 -0.0077034337
-0.024298826 0.03875569 -0.02291468 0.109969 -0.086444885 0.016861774 -0.114947736 0.23843744
0.26172328 -0.13099594 0.06333701 0.0788722 0.14797322 0.04512669 -0.045089446 -0.016981164
0.09806568 0.07827177 0.2358805 0.011762574 0.24019134 -0.015786832 -0.031882904 0.090675816
0.06456064 -0.08424403 -0.07322002 0.035190504 0.08179984 0.041251298 0.20623924 0.37061396
-0.03329475 0.16129969 0.2421682 0.2659389 0.23046105 0.20765845 -0.07043099 0.046234958
0.10692053 -0.101291485 0.7575477 0.18066214 -0.13109487 -0.020172201 0.06765021 0.28764775
0.0014502467 0.016354907 0.2738099 0.15476581 -0.10457327 -0.046631135 0.06432861 -0.017457573
0.09558781 -0.080046065 -0.06248803 0.048870422 0.03354687 0.07807804 0.08079713 -0.04580018
-0.10514992 0.14061998 0.0868211 -0.048263572

weight f4 [10, 84]
00000000: 0018 68bd 4938 483c c2d6 babd 0942 96bc
00000010: 5c74 d4bc 3c33 583e ea15 dd3d fbde bd3d
00000020: bb4b 563d feea 8a3d 2cf0 c03c 94e7 3d3d
00000030: f8ec ca3c 83dc 7a3e 0c51 9ebd dc88 853d
00000040: 8be7 7e3d a224 60bd e865 20bd 3bfb f9bc
00000050: 0e5f 1dbe 809c ed3d 453b 6e3d 45a4 92bd
00000060: e27a aabd d108 183e 001e 2d3e bbf7 0f3c
00000070: c82c e43d 81aa 003e f546 563d 6982 ebbc
00000080: bc7c 603d eda9 be3a 77e6 c7bc c34f 833e
00000090: f9a4 20be 8694 19be f30f 7a3d b4b7 38be
000000a0: 9091 793d 8854 b3bd 9f77 5abd cdb8 b03d
000000b0: d698 8c3e ded9 b4bd 33b6 143e f917 f53c
000000c0: 0f1a b5bd f605 2c3d 29ec aebd 139e 9ebd
000000d0: f2f3 993e 0537 3c3e 5d76 d2bc ce9f d33d
000000e0: 95eb 05be 8052 083c 05d6 b5be e83c b23e
000000f0: efe1 efbd e324 0e3d c9f1 873d e7b3 963c
00000100: 0bd9 cfbd d8ef 87bd 6c60 7e3e 733f 5cbe
00000110: 5a35 023e 9b33 2dbe 6c11 5a3e 3b66 afbc
00000120: 9a19 3ebe 3c55 e2bd 5df1 4f3d f4e4 78be
00000130: c12c 523e 216d 5c3c c88d 953d 4b3c 3d3d
00000140: 2094 153d c0bc 683e 05c0 8c3e bbf0 81bd
00000150: 354e b1bd 73f4 c0bd 5909 a8be e498 20bd
00000160: 4b55 833d 32dd cb3c 0920 4bbd 5975 d7bc
00000170: 5697 59bd d21d 6d3e a068 f03c 69cf d2bc
00000180: eb49 11bd dffe 983d 370b 7bbe aee5 fb3d
00000190: 86a7 1dbc 71f1 423e c82f 6a3d 2d1c 89be
000001a0: a8b3 a33d f2fd a83c 6963 3fbe 993b 663c
000001b0: 9072 a0bd 8643 373e ddad 253e 470c 383e
000001c0: be69 1dbe ee55 c33d 781a 6f3d b243 c8bd
000001d0: 7579 273e 2166 d4bd 7a0b e2bd 7d9e 4b3b
000001e0: 1222 84be f0b5 b83d aa9c 2d3e c4ec bd3e
000001f0: 5c92 c63d 4065 3f3d 3c1e 1bbc e2d8 273e
00000200: 38eb fabd ce7d 11be d118 7abe 4050 77be
00000210: 97e2 b73d 6106 523e a9fb 4b3d 58ba f2bd
00000220: 770e 84bd 49d1 63be d9ed 92bc 3db4 e1bb
00000230: 853a b7bd 53b9 b73d f7f8 98be e766 2f3e
00000240: eea6 a8bd 533b 223c 4bb0 3ebd 06fb 9abe
00000250: 1e25 a4bc 854d e2bd b9b0 16bd 1f02 a2bd
00000260: b22b 183e 79cb b73e 3f1b 82be 1884 433e
00000270: 0fa2 a3bd 0819 053e 91d8 093e c9bc 76be
00000280: 427f da3c 3226 bb3c e624 8b3e 264c e1bc
00000290: b8c7 1eba eadd 9f3e a2a3 293e 546d c6bd
000002a0: a962 d03d 391b 793e 1878 3abd 8e68 d53d
000002b0: 0625 14be 7f89 64bc 5116 243e 4af3 f2bc
000002c0: 2992 dfbd 7868 8dbd c7c3 84bd 4875 993d
000002d0: 9a4b 643d 62a3 0ebe 5ae4 223e fee1 c8bd
000002e0: 64f0 8bbc ba45 a6bd 16fe 9abd 55ac 623e
000002f0: 6e7d d03d ea4b f83d 7ab6 35be 50a3 353c
00000300: bd63 0b3c 1328 7d3e 6092 dfbd c9fd f3bc
00000310: 21b0 973e 51ac 32be 5f43 e4bd 2485 253e
00000320: 6726 33be e81c 17be 048e 6abe 911d 823c
00000330: 5c66 1c3d 7c17 b23d 11bb fb3d d71b 06be
00000340: f177 993c 39dc a63d 3480 86bd ad1f 35be
00000350: 3705 9e3c 3fa9 76bd 1769 343e 2849 3f3d
00000360: 3edb 923d 0a64 6dbc e35b 743a ed7c 56bc
00000370: 6012 133d 1018 613e 5515 7f3d 852e 9a3d
00000380: 933d 99bd 7ae4 23bd a972 b63e e324 153e
00000390: d904 30bd b170 b5bd 75a5 f3bc c0df a53e
000003a0: bbf9 02be ebf2 eabd d08d 023d 4092 2dba
000003b0: 2005 c0bd bfe2 36bd dbde 963d d277 a43c
000003c0: de99 593e ee12 fbbd 6f77 003e f5c5 3f3d
000003d0: 4379 433e 541c 58bd f52b 96bd 496c b6bd
000003e0: ed93 e8bc 0a62 7d3d fd2a 1dbd 3380 3d3d
000003f0: c995 a63d b938 31be 7c36 273e a01f 26bb
-0.056663513 0.012220451 -0.09122993 -0.018342035 -0.02593439 0.21113294 0.107951954 0.09271046
0.052318316 0.067831025 0.023552023 0.04636343 0.024771199 0.24498181 -0.07730302 0.065202445
0.062232535 -0.054722436 -0.039159685 -0.030515304 -0.15368292 0.11602116 0.058161993 -0.07160238
-0.08324219 0.14847113 0.16905975 0.008787091 0.11141354 0.12565042 0.052313764 -0.028748708
0.054806456 0.0014546491 -0.024401886 0.2564679 -0.15687932 -0.14998063 0.061050367 -0.18038827
0.060929835 -0.087563574 -0.053336736 0.08628998 0.27460355 -0.08830617 0.14522628 0.029918658
-0.08842861 0.041997872 -0.08541138 -0.07744994 0.30068928 0.18380363 -0.025691206 0.10333215
-0.13078149 0.008320451 -0.35514846 0.34812093 -0.11713015 0.034703147 0.06637914 0.018396331
-0.101488195 -0.066375434 0.2484147 -0.21508579 0.12715665 -0.16914217 0.21295708 -0.021411052
-0.18564454 -0.110514134 0.05076729 -0.24306089 0.20524885 0.013453753 0.07302433 0.046200078
0.036518216 0.22728252 0.2749025 -0.06344744 -0.08657495 -0.09421625 -0.32819632 -0.039208308
0.06412753 0.024885748 -0.049591098 -0.026301073 -0.05312284 0.23155907 0.029346764 -0.025733666
-0.035470884 0.07470488 -0.24515997 0.12299667 -0.00962246 0.19037415 0.057174474 -0.2677931
0.07993251 0.020628903 -0.18690266 0.014052295 -0.07834351 0.17896852 0.16179605 0.17973433
-0.15372369 0.09537874 0.058374852 -0.09778537 0.16354926 -0.10371042 -0.11037345 0.0031069808
-0.25807244 0.09019077 0.16954294 0.370947 0.096958846 0.04672742 -0.009467658 0.16391328
-0.12251896 -0.14208147 -0.24423529 -0.24151707 0.089787655 0.20510246 0.04980055 -0.118519485
-0.064480714 -0.22247805 -0.01793568 -0.006887941 -0.089467086 0.08970895 -0.29877445 0.17129098
-0.08234964 0.009901839 -0.046554845 -0.3026964 -0.02003723 -0.11049942 -0.03678963 -0.07910561
0.14860418 0.35897425 -0.25411412 0.19093359 -0.079898946 0.1299783 0.1346152 -0.24095453
0.02667201 0.022845361 0.2717659 -0.02750213 -0.0006056982 0.31223994 0.16566327 -0.096888214
0.10175068 0.24326791 -0.045524687 0.10420333 -0.14467248 -0.013948797 0.16024138 -0.029657025
-0.1091655 -0.069046915 -0.06482654 0.07493073 0.05573616 -0.13929513 0.15907422 -0.098087296
-0.0170824 -0.08118768 -0.07567994 0.22136052 0.10180174 0.121238545 -0.1774539 0.0110863
0.008507666 0.24722318 -0.10916591 -0.0297841 0.29626563 -0.17448546 -0.111456625 0.1616407
-0.17495118 -0.1475712 -0.22905737 0.015883239 0.038183555 0.086958855 0.122915395 -0.13096558
0.01873395 0.08147473 -0.065674216 -0.17687865 0.019289596 -0.06022 0.17618214 0.046700627
0.071707234 -0.014489183 0.00093215535 -0.013091308 0.035906196 0.21981835 0.062276203 0.07528404
-0.074824475 -0.040012814 0.35634354 0.14564852 -0.042973373 -0.08859385 -0.029741982 0.3239727
-0.12790577 -0.11472114 0.031873524 -0.0006621219 -0.093759775 -0.044649836 0.07366725 0.020076666
0.21250102 -0.1225947 0.1254556 0.046819646 0.19089226 -0.05276139 -0.07332603 -0.089073725
-0.028390849 0.061861075 -0.038371075 0.04626484 0.08134038 -0.17306794 0.16329378 -0.002534844

bias f4 [10]
00000000: 3a72 a2be 5050 d1be f4ba 933c b2c9 a83e
00000010: c110 1a3f bd24 48be ea58 f53e c8d4 b5be
00000020: b142 173e 1c39 d4be
-0.31727773 -0.40881586 0.018033482 0.3296638 0.60181814 -0.19545265 0.479194 -0.35513902
0.14771535 -0.4144982
